<?xml version="1.0" ?>
<net name="wavenet10130" version="10">
	<layers>
		<layer id="0" name="input.1" type="Parameter" version="opset1">
			<data element_type="f16" shape="1, 1, 10130"/>
			<output>
				<port id="0" names="input.1" precision="FP16">
					<dim>1</dim>
					<dim>1</dim>
					<dim>10130</dim>
				</port>
			</output>
		</layer>
		<layer id="1" name="Constant_467" type="Const" version="opset1">
			<data element_type="f16" offset="0" shape="1, 16, 10130" size="324160"/>
			<output>
				<port id="0" names="792" precision="FP16">
					<dim>1</dim>
					<dim>16</dim>
					<dim>10130</dim>
				</port>
			</output>
		</layer>
		<layer id="2" name="blocks.0.pre_process.weight" type="Const" version="opset1">
			<data element_type="f16" offset="324160" shape="16, 1, 1" size="32"/>
			<output>
				<port id="0" names="blocks.0.pre_process.weight" precision="FP16">
					<dim>16</dim>
					<dim>1</dim>
					<dim>1</dim>
				</port>
			</output>
		</layer>
		<layer id="3" name="Conv_0/WithoutBiases" type="Convolution" version="opset1">
			<data auto_pad="explicit" dilations="1" pads_begin="0" pads_end="0" strides="1"/>
			<input>
				<port id="0" precision="FP16">
					<dim>1</dim>
					<dim>1</dim>
					<dim>10130</dim>
				</port>
				<port id="1" precision="FP16">
					<dim>16</dim>
					<dim>1</dim>
					<dim>1</dim>
				</port>
			</input>
			<output>
				<port id="2" precision="FP16">
					<dim>1</dim>
					<dim>16</dim>
					<dim>10130</dim>
				</port>
			</output>
		</layer>
		<layer id="4" name="Conv_0/Dims11203" type="Const" version="opset1">
			<data element_type="f16" offset="324192" shape="1, 16, 1" size="32"/>
			<output>
				<port id="0" precision="FP16">
					<dim>1</dim>
					<dim>16</dim>
					<dim>1</dim>
				</port>
			</output>
		</layer>
		<layer id="5" name="Conv_0" type="Add" version="opset1">
			<data auto_broadcast="numpy"/>
			<input>
				<port id="0" precision="FP16">
					<dim>1</dim>
					<dim>16</dim>
					<dim>10130</dim>
				</port>
				<port id="1" precision="FP16">
					<dim>1</dim>
					<dim>16</dim>
					<dim>1</dim>
				</port>
			</input>
			<output>
				<port id="2" names="325" precision="FP16">
					<dim>1</dim>
					<dim>16</dim>
					<dim>10130</dim>
				</port>
			</output>
		</layer>
		<layer id="6" name="Relu_1" type="ReLU" version="opset1">
			<input>
				<port id="0" precision="FP16">
					<dim>1</dim>
					<dim>16</dim>
					<dim>10130</dim>
				</port>
			</input>
			<output>
				<port id="1" names="326" precision="FP16">
					<dim>1</dim>
					<dim>16</dim>
					<dim>10130</dim>
				</port>
			</output>
		</layer>
		<layer id="7" name="blocks.0.filter.weight" type="Const" version="opset1">
			<data element_type="f16" offset="324224" shape="32, 16, 2" size="2048"/>
			<output>
				<port id="0" names="blocks.0.filter.weight" precision="FP16">
					<dim>32</dim>
					<dim>16</dim>
					<dim>2</dim>
				</port>
			</output>
		</layer>
		<layer id="8" name="Conv_2/WithoutBiases" type="Convolution" version="opset1">
			<data auto_pad="explicit" dilations="1" pads_begin="0" pads_end="0" strides="1"/>
			<input>
				<port id="0" precision="FP16">
					<dim>1</dim>
					<dim>16</dim>
					<dim>10130</dim>
				</port>
				<port id="1" precision="FP16">
					<dim>32</dim>
					<dim>16</dim>
					<dim>2</dim>
				</port>
			</input>
			<output>
				<port id="2" precision="FP16">
					<dim>1</dim>
					<dim>32</dim>
					<dim>10129</dim>
				</port>
			</output>
		</layer>
		<layer id="9" name="Conv_2/Dims10375" type="Const" version="opset1">
			<data element_type="f16" offset="326272" shape="1, 32, 1" size="64"/>
			<output>
				<port id="0" precision="FP16">
					<dim>1</dim>
					<dim>32</dim>
					<dim>1</dim>
				</port>
			</output>
		</layer>
		<layer id="10" name="Conv_2" type="Add" version="opset1">
			<data auto_broadcast="numpy"/>
			<input>
				<port id="0" precision="FP16">
					<dim>1</dim>
					<dim>32</dim>
					<dim>10129</dim>
				</port>
				<port id="1" precision="FP16">
					<dim>1</dim>
					<dim>32</dim>
					<dim>1</dim>
				</port>
			</input>
			<output>
				<port id="2" names="327" precision="FP16">
					<dim>1</dim>
					<dim>32</dim>
					<dim>10129</dim>
				</port>
			</output>
		</layer>
		<layer id="11" name="857" type="Const" version="opset1">
			<data element_type="i64" offset="326336" shape="3" size="24"/>
			<output>
				<port id="0" precision="I64">
					<dim>3</dim>
				</port>
			</output>
		</layer>
		<layer id="12" name="858" type="Const" version="opset1">
			<data element_type="i64" offset="326360" shape="3" size="24"/>
			<output>
				<port id="0" precision="I64">
					<dim>3</dim>
				</port>
			</output>
		</layer>
		<layer id="13" name="Pad_3/pad_value_convert_input_port_0/value" type="Const" version="opset1">
			<data element_type="f16" offset="326384" shape="" size="2"/>
			<output>
				<port id="0" precision="FP16"/>
			</output>
		</layer>
		<layer id="14" name="Pad_3/pad_value_convert" type="ConvertLike" version="opset1">
			<input>
				<port id="0" precision="FP16"/>
				<port id="1" precision="FP16">
					<dim>1</dim>
					<dim>32</dim>
					<dim>10129</dim>
				</port>
			</input>
			<output>
				<port id="2" precision="FP16"/>
			</output>
		</layer>
		<layer id="15" name="Pad_3" type="Pad" version="opset1">
			<data pad_mode="constant"/>
			<input>
				<port id="0" precision="FP16">
					<dim>1</dim>
					<dim>32</dim>
					<dim>10129</dim>
				</port>
				<port id="1" precision="I64">
					<dim>3</dim>
				</port>
				<port id="2" precision="I64">
					<dim>3</dim>
				</port>
				<port id="3" precision="FP16"/>
			</input>
			<output>
				<port id="4" names="328" precision="FP16">
					<dim>1</dim>
					<dim>32</dim>
					<dim>10130</dim>
				</port>
			</output>
		</layer>
		<layer id="16" name="Tanh_6" type="Tanh" version="opset1">
			<input>
				<port id="0" precision="FP16">
					<dim>1</dim>
					<dim>32</dim>
					<dim>10130</dim>
				</port>
			</input>
			<output>
				<port id="1" names="331" precision="FP16">
					<dim>1</dim>
					<dim>32</dim>
					<dim>10130</dim>
				</port>
			</output>
		</layer>
		<layer id="17" name="blocks.0.gating.weight" type="Const" version="opset1">
			<data element_type="f16" offset="326386" shape="32, 16, 2" size="2048"/>
			<output>
				<port id="0" names="blocks.0.gating.weight" precision="FP16">
					<dim>32</dim>
					<dim>16</dim>
					<dim>2</dim>
				</port>
			</output>
		</layer>
		<layer id="18" name="Conv_4/WithoutBiases" type="Convolution" version="opset1">
			<data auto_pad="explicit" dilations="1" pads_begin="0" pads_end="0" strides="1"/>
			<input>
				<port id="0" precision="FP16">
					<dim>1</dim>
					<dim>16</dim>
					<dim>10130</dim>
				</port>
				<port id="1" precision="FP16">
					<dim>32</dim>
					<dim>16</dim>
					<dim>2</dim>
				</port>
			</input>
			<output>
				<port id="2" precision="FP16">
					<dim>1</dim>
					<dim>32</dim>
					<dim>10129</dim>
				</port>
			</output>
		</layer>
		<layer id="19" name="Conv_4/Dims10543" type="Const" version="opset1">
			<data element_type="f16" offset="328434" shape="1, 32, 1" size="64"/>
			<output>
				<port id="0" precision="FP16">
					<dim>1</dim>
					<dim>32</dim>
					<dim>1</dim>
				</port>
			</output>
		</layer>
		<layer id="20" name="Conv_4" type="Add" version="opset1">
			<data auto_broadcast="numpy"/>
			<input>
				<port id="0" precision="FP16">
					<dim>1</dim>
					<dim>32</dim>
					<dim>10129</dim>
				</port>
				<port id="1" precision="FP16">
					<dim>1</dim>
					<dim>32</dim>
					<dim>1</dim>
				</port>
			</input>
			<output>
				<port id="2" names="329" precision="FP16">
					<dim>1</dim>
					<dim>32</dim>
					<dim>10129</dim>
				</port>
			</output>
		</layer>
		<layer id="21" name="862" type="Const" version="opset1">
			<data element_type="i64" offset="326336" shape="3" size="24"/>
			<output>
				<port id="0" precision="I64">
					<dim>3</dim>
				</port>
			</output>
		</layer>
		<layer id="22" name="863" type="Const" version="opset1">
			<data element_type="i64" offset="326360" shape="3" size="24"/>
			<output>
				<port id="0" precision="I64">
					<dim>3</dim>
				</port>
			</output>
		</layer>
		<layer id="23" name="Pad_5/pad_value_convert_input_port_0/value" type="Const" version="opset1">
			<data element_type="f16" offset="326384" shape="" size="2"/>
			<output>
				<port id="0" precision="FP16"/>
			</output>
		</layer>
		<layer id="24" name="Pad_5/pad_value_convert" type="ConvertLike" version="opset1">
			<input>
				<port id="0" precision="FP16"/>
				<port id="1" precision="FP16">
					<dim>1</dim>
					<dim>32</dim>
					<dim>10129</dim>
				</port>
			</input>
			<output>
				<port id="2" precision="FP16"/>
			</output>
		</layer>
		<layer id="25" name="Pad_5" type="Pad" version="opset1">
			<data pad_mode="constant"/>
			<input>
				<port id="0" precision="FP16">
					<dim>1</dim>
					<dim>32</dim>
					<dim>10129</dim>
				</port>
				<port id="1" precision="I64">
					<dim>3</dim>
				</port>
				<port id="2" precision="I64">
					<dim>3</dim>
				</port>
				<port id="3" precision="FP16"/>
			</input>
			<output>
				<port id="4" names="330" precision="FP16">
					<dim>1</dim>
					<dim>32</dim>
					<dim>10130</dim>
				</port>
			</output>
		</layer>
		<layer id="26" name="Sigmoid_7" type="Sigmoid" version="opset1">
			<input>
				<port id="0" precision="FP16">
					<dim>1</dim>
					<dim>32</dim>
					<dim>10130</dim>
				</port>
			</input>
			<output>
				<port id="1" names="332" precision="FP16">
					<dim>1</dim>
					<dim>32</dim>
					<dim>10130</dim>
				</port>
			</output>
		</layer>
		<layer id="27" name="Mul_8" type="Multiply" version="opset1">
			<data auto_broadcast="numpy"/>
			<input>
				<port id="0" precision="FP16">
					<dim>1</dim>
					<dim>32</dim>
					<dim>10130</dim>
				</port>
				<port id="1" precision="FP16">
					<dim>1</dim>
					<dim>32</dim>
					<dim>10130</dim>
				</port>
			</input>
			<output>
				<port id="2" names="333" precision="FP16">
					<dim>1</dim>
					<dim>32</dim>
					<dim>10130</dim>
				</port>
			</output>
		</layer>
		<layer id="28" name="blocks.0.post_process.weight" type="Const" version="opset1">
			<data element_type="f16" offset="328498" shape="16, 32, 1" size="1024"/>
			<output>
				<port id="0" names="blocks.0.post_process.weight" precision="FP16">
					<dim>16</dim>
					<dim>32</dim>
					<dim>1</dim>
				</port>
			</output>
		</layer>
		<layer id="29" name="Conv_9/WithoutBiases" type="Convolution" version="opset1">
			<data auto_pad="explicit" dilations="1" pads_begin="0" pads_end="0" strides="1"/>
			<input>
				<port id="0" precision="FP16">
					<dim>1</dim>
					<dim>32</dim>
					<dim>10130</dim>
				</port>
				<port id="1" precision="FP16">
					<dim>16</dim>
					<dim>32</dim>
					<dim>1</dim>
				</port>
			</input>
			<output>
				<port id="2" precision="FP16">
					<dim>1</dim>
					<dim>16</dim>
					<dim>10130</dim>
				</port>
			</output>
		</layer>
		<layer id="30" name="Conv_9/Dims10315" type="Const" version="opset1">
			<data element_type="f16" offset="329522" shape="1, 16, 1" size="32"/>
			<output>
				<port id="0" precision="FP16">
					<dim>1</dim>
					<dim>16</dim>
					<dim>1</dim>
				</port>
			</output>
		</layer>
		<layer id="31" name="Conv_9" type="Add" version="opset1">
			<data auto_broadcast="numpy"/>
			<input>
				<port id="0" precision="FP16">
					<dim>1</dim>
					<dim>16</dim>
					<dim>10130</dim>
				</port>
				<port id="1" precision="FP16">
					<dim>1</dim>
					<dim>16</dim>
					<dim>1</dim>
				</port>
			</input>
			<output>
				<port id="2" names="334" precision="FP16">
					<dim>1</dim>
					<dim>16</dim>
					<dim>10130</dim>
				</port>
			</output>
		</layer>
		<layer id="32" name="Relu_10" type="ReLU" version="opset1">
			<input>
				<port id="0" precision="FP16">
					<dim>1</dim>
					<dim>16</dim>
					<dim>10130</dim>
				</port>
			</input>
			<output>
				<port id="1" names="335" precision="FP16">
					<dim>1</dim>
					<dim>16</dim>
					<dim>10130</dim>
				</port>
			</output>
		</layer>
		<layer id="33" name="Add_468" type="Add" version="opset1">
			<data auto_broadcast="numpy"/>
			<input>
				<port id="0" precision="FP16">
					<dim>1</dim>
					<dim>16</dim>
					<dim>10130</dim>
				</port>
				<port id="1" precision="FP16">
					<dim>1</dim>
					<dim>16</dim>
					<dim>10130</dim>
				</port>
			</input>
			<output>
				<port id="2" names="793" precision="FP16">
					<dim>1</dim>
					<dim>16</dim>
					<dim>10130</dim>
				</port>
			</output>
		</layer>
		<layer id="34" name="Add_11" type="Add" version="opset1">
			<data auto_broadcast="numpy"/>
			<input>
				<port id="0" precision="FP16">
					<dim>1</dim>
					<dim>16</dim>
					<dim>10130</dim>
				</port>
				<port id="1" precision="FP16">
					<dim>1</dim>
					<dim>16</dim>
					<dim>10130</dim>
				</port>
			</input>
			<output>
				<port id="2" names="336" precision="FP16">
					<dim>1</dim>
					<dim>16</dim>
					<dim>10130</dim>
				</port>
			</output>
		</layer>
		<layer id="35" name="blocks.1.pre_process.weight" type="Const" version="opset1">
			<data element_type="f16" offset="329554" shape="16, 16, 1" size="512"/>
			<output>
				<port id="0" names="blocks.1.pre_process.weight" precision="FP16">
					<dim>16</dim>
					<dim>16</dim>
					<dim>1</dim>
				</port>
			</output>
		</layer>
		<layer id="36" name="Conv_12/WithoutBiases" type="Convolution" version="opset1">
			<data auto_pad="explicit" dilations="1" pads_begin="0" pads_end="0" strides="1"/>
			<input>
				<port id="0" precision="FP16">
					<dim>1</dim>
					<dim>16</dim>
					<dim>10130</dim>
				</port>
				<port id="1" precision="FP16">
					<dim>16</dim>
					<dim>16</dim>
					<dim>1</dim>
				</port>
			</input>
			<output>
				<port id="2" precision="FP16">
					<dim>1</dim>
					<dim>16</dim>
					<dim>10130</dim>
				</port>
			</output>
		</layer>
		<layer id="37" name="Conv_12/Dims10849" type="Const" version="opset1">
			<data element_type="f16" offset="330066" shape="1, 16, 1" size="32"/>
			<output>
				<port id="0" precision="FP16">
					<dim>1</dim>
					<dim>16</dim>
					<dim>1</dim>
				</port>
			</output>
		</layer>
		<layer id="38" name="Conv_12" type="Add" version="opset1">
			<data auto_broadcast="numpy"/>
			<input>
				<port id="0" precision="FP16">
					<dim>1</dim>
					<dim>16</dim>
					<dim>10130</dim>
				</port>
				<port id="1" precision="FP16">
					<dim>1</dim>
					<dim>16</dim>
					<dim>1</dim>
				</port>
			</input>
			<output>
				<port id="2" names="337" precision="FP16">
					<dim>1</dim>
					<dim>16</dim>
					<dim>10130</dim>
				</port>
			</output>
		</layer>
		<layer id="39" name="Relu_13" type="ReLU" version="opset1">
			<input>
				<port id="0" precision="FP16">
					<dim>1</dim>
					<dim>16</dim>
					<dim>10130</dim>
				</port>
			</input>
			<output>
				<port id="1" names="338" precision="FP16">
					<dim>1</dim>
					<dim>16</dim>
					<dim>10130</dim>
				</port>
			</output>
		</layer>
		<layer id="40" name="blocks.1.filter.weight" type="Const" version="opset1">
			<data element_type="f16" offset="330098" shape="32, 16, 2" size="2048"/>
			<output>
				<port id="0" names="blocks.1.filter.weight" precision="FP16">
					<dim>32</dim>
					<dim>16</dim>
					<dim>2</dim>
				</port>
			</output>
		</layer>
		<layer id="41" name="Conv_14/WithoutBiases" type="Convolution" version="opset1">
			<data auto_pad="explicit" dilations="2" pads_begin="0" pads_end="0" strides="1"/>
			<input>
				<port id="0" precision="FP16">
					<dim>1</dim>
					<dim>16</dim>
					<dim>10130</dim>
				</port>
				<port id="1" precision="FP16">
					<dim>32</dim>
					<dim>16</dim>
					<dim>2</dim>
				</port>
			</input>
			<output>
				<port id="2" precision="FP16">
					<dim>1</dim>
					<dim>32</dim>
					<dim>10128</dim>
				</port>
			</output>
		</layer>
		<layer id="42" name="Conv_14/Dims10351" type="Const" version="opset1">
			<data element_type="f16" offset="332146" shape="1, 32, 1" size="64"/>
			<output>
				<port id="0" precision="FP16">
					<dim>1</dim>
					<dim>32</dim>
					<dim>1</dim>
				</port>
			</output>
		</layer>
		<layer id="43" name="Conv_14" type="Add" version="opset1">
			<data auto_broadcast="numpy"/>
			<input>
				<port id="0" precision="FP16">
					<dim>1</dim>
					<dim>32</dim>
					<dim>10128</dim>
				</port>
				<port id="1" precision="FP16">
					<dim>1</dim>
					<dim>32</dim>
					<dim>1</dim>
				</port>
			</input>
			<output>
				<port id="2" names="339" precision="FP16">
					<dim>1</dim>
					<dim>32</dim>
					<dim>10128</dim>
				</port>
			</output>
		</layer>
		<layer id="44" name="867" type="Const" version="opset1">
			<data element_type="i64" offset="326336" shape="3" size="24"/>
			<output>
				<port id="0" precision="I64">
					<dim>3</dim>
				</port>
			</output>
		</layer>
		<layer id="45" name="868" type="Const" version="opset1">
			<data element_type="i64" offset="332210" shape="3" size="24"/>
			<output>
				<port id="0" precision="I64">
					<dim>3</dim>
				</port>
			</output>
		</layer>
		<layer id="46" name="Pad_15/pad_value_convert_input_port_0/value" type="Const" version="opset1">
			<data element_type="f16" offset="326384" shape="" size="2"/>
			<output>
				<port id="0" precision="FP16"/>
			</output>
		</layer>
		<layer id="47" name="Pad_15/pad_value_convert" type="ConvertLike" version="opset1">
			<input>
				<port id="0" precision="FP16"/>
				<port id="1" precision="FP16">
					<dim>1</dim>
					<dim>32</dim>
					<dim>10128</dim>
				</port>
			</input>
			<output>
				<port id="2" precision="FP16"/>
			</output>
		</layer>
		<layer id="48" name="Pad_15" type="Pad" version="opset1">
			<data pad_mode="constant"/>
			<input>
				<port id="0" precision="FP16">
					<dim>1</dim>
					<dim>32</dim>
					<dim>10128</dim>
				</port>
				<port id="1" precision="I64">
					<dim>3</dim>
				</port>
				<port id="2" precision="I64">
					<dim>3</dim>
				</port>
				<port id="3" precision="FP16"/>
			</input>
			<output>
				<port id="4" names="340" precision="FP16">
					<dim>1</dim>
					<dim>32</dim>
					<dim>10130</dim>
				</port>
			</output>
		</layer>
		<layer id="49" name="Tanh_18" type="Tanh" version="opset1">
			<input>
				<port id="0" precision="FP16">
					<dim>1</dim>
					<dim>32</dim>
					<dim>10130</dim>
				</port>
			</input>
			<output>
				<port id="1" names="343" precision="FP16">
					<dim>1</dim>
					<dim>32</dim>
					<dim>10130</dim>
				</port>
			</output>
		</layer>
		<layer id="50" name="blocks.1.gating.weight" type="Const" version="opset1">
			<data element_type="f16" offset="332234" shape="32, 16, 2" size="2048"/>
			<output>
				<port id="0" names="blocks.1.gating.weight" precision="FP16">
					<dim>32</dim>
					<dim>16</dim>
					<dim>2</dim>
				</port>
			</output>
		</layer>
		<layer id="51" name="Conv_16/WithoutBiases" type="Convolution" version="opset1">
			<data auto_pad="explicit" dilations="2" pads_begin="0" pads_end="0" strides="1"/>
			<input>
				<port id="0" precision="FP16">
					<dim>1</dim>
					<dim>16</dim>
					<dim>10130</dim>
				</port>
				<port id="1" precision="FP16">
					<dim>32</dim>
					<dim>16</dim>
					<dim>2</dim>
				</port>
			</input>
			<output>
				<port id="2" precision="FP16">
					<dim>1</dim>
					<dim>32</dim>
					<dim>10128</dim>
				</port>
			</output>
		</layer>
		<layer id="52" name="Conv_16/Dims10903" type="Const" version="opset1">
			<data element_type="f16" offset="334282" shape="1, 32, 1" size="64"/>
			<output>
				<port id="0" precision="FP16">
					<dim>1</dim>
					<dim>32</dim>
					<dim>1</dim>
				</port>
			</output>
		</layer>
		<layer id="53" name="Conv_16" type="Add" version="opset1">
			<data auto_broadcast="numpy"/>
			<input>
				<port id="0" precision="FP16">
					<dim>1</dim>
					<dim>32</dim>
					<dim>10128</dim>
				</port>
				<port id="1" precision="FP16">
					<dim>1</dim>
					<dim>32</dim>
					<dim>1</dim>
				</port>
			</input>
			<output>
				<port id="2" names="341" precision="FP16">
					<dim>1</dim>
					<dim>32</dim>
					<dim>10128</dim>
				</port>
			</output>
		</layer>
		<layer id="54" name="872" type="Const" version="opset1">
			<data element_type="i64" offset="326336" shape="3" size="24"/>
			<output>
				<port id="0" precision="I64">
					<dim>3</dim>
				</port>
			</output>
		</layer>
		<layer id="55" name="873" type="Const" version="opset1">
			<data element_type="i64" offset="332210" shape="3" size="24"/>
			<output>
				<port id="0" precision="I64">
					<dim>3</dim>
				</port>
			</output>
		</layer>
		<layer id="56" name="Pad_17/pad_value_convert_input_port_0/value" type="Const" version="opset1">
			<data element_type="f16" offset="326384" shape="" size="2"/>
			<output>
				<port id="0" precision="FP16"/>
			</output>
		</layer>
		<layer id="57" name="Pad_17/pad_value_convert" type="ConvertLike" version="opset1">
			<input>
				<port id="0" precision="FP16"/>
				<port id="1" precision="FP16">
					<dim>1</dim>
					<dim>32</dim>
					<dim>10128</dim>
				</port>
			</input>
			<output>
				<port id="2" precision="FP16"/>
			</output>
		</layer>
		<layer id="58" name="Pad_17" type="Pad" version="opset1">
			<data pad_mode="constant"/>
			<input>
				<port id="0" precision="FP16">
					<dim>1</dim>
					<dim>32</dim>
					<dim>10128</dim>
				</port>
				<port id="1" precision="I64">
					<dim>3</dim>
				</port>
				<port id="2" precision="I64">
					<dim>3</dim>
				</port>
				<port id="3" precision="FP16"/>
			</input>
			<output>
				<port id="4" names="342" precision="FP16">
					<dim>1</dim>
					<dim>32</dim>
					<dim>10130</dim>
				</port>
			</output>
		</layer>
		<layer id="59" name="Sigmoid_19" type="Sigmoid" version="opset1">
			<input>
				<port id="0" precision="FP16">
					<dim>1</dim>
					<dim>32</dim>
					<dim>10130</dim>
				</port>
			</input>
			<output>
				<port id="1" names="344" precision="FP16">
					<dim>1</dim>
					<dim>32</dim>
					<dim>10130</dim>
				</port>
			</output>
		</layer>
		<layer id="60" name="Mul_20" type="Multiply" version="opset1">
			<data auto_broadcast="numpy"/>
			<input>
				<port id="0" precision="FP16">
					<dim>1</dim>
					<dim>32</dim>
					<dim>10130</dim>
				</port>
				<port id="1" precision="FP16">
					<dim>1</dim>
					<dim>32</dim>
					<dim>10130</dim>
				</port>
			</input>
			<output>
				<port id="2" names="345" precision="FP16">
					<dim>1</dim>
					<dim>32</dim>
					<dim>10130</dim>
				</port>
			</output>
		</layer>
		<layer id="61" name="blocks.1.post_process.weight" type="Const" version="opset1">
			<data element_type="f16" offset="334346" shape="16, 32, 1" size="1024"/>
			<output>
				<port id="0" names="blocks.1.post_process.weight" precision="FP16">
					<dim>16</dim>
					<dim>32</dim>
					<dim>1</dim>
				</port>
			</output>
		</layer>
		<layer id="62" name="Conv_21/WithoutBiases" type="Convolution" version="opset1">
			<data auto_pad="explicit" dilations="1" pads_begin="0" pads_end="0" strides="1"/>
			<input>
				<port id="0" precision="FP16">
					<dim>1</dim>
					<dim>32</dim>
					<dim>10130</dim>
				</port>
				<port id="1" precision="FP16">
					<dim>16</dim>
					<dim>32</dim>
					<dim>1</dim>
				</port>
			</input>
			<output>
				<port id="2" precision="FP16">
					<dim>1</dim>
					<dim>16</dim>
					<dim>10130</dim>
				</port>
			</output>
		</layer>
		<layer id="63" name="Conv_21/Dims10369" type="Const" version="opset1">
			<data element_type="f16" offset="335370" shape="1, 16, 1" size="32"/>
			<output>
				<port id="0" precision="FP16">
					<dim>1</dim>
					<dim>16</dim>
					<dim>1</dim>
				</port>
			</output>
		</layer>
		<layer id="64" name="Conv_21" type="Add" version="opset1">
			<data auto_broadcast="numpy"/>
			<input>
				<port id="0" precision="FP16">
					<dim>1</dim>
					<dim>16</dim>
					<dim>10130</dim>
				</port>
				<port id="1" precision="FP16">
					<dim>1</dim>
					<dim>16</dim>
					<dim>1</dim>
				</port>
			</input>
			<output>
				<port id="2" names="346" precision="FP16">
					<dim>1</dim>
					<dim>16</dim>
					<dim>10130</dim>
				</port>
			</output>
		</layer>
		<layer id="65" name="Relu_22" type="ReLU" version="opset1">
			<input>
				<port id="0" precision="FP16">
					<dim>1</dim>
					<dim>16</dim>
					<dim>10130</dim>
				</port>
			</input>
			<output>
				<port id="1" names="347" precision="FP16">
					<dim>1</dim>
					<dim>16</dim>
					<dim>10130</dim>
				</port>
			</output>
		</layer>
		<layer id="66" name="Add_469" type="Add" version="opset1">
			<data auto_broadcast="numpy"/>
			<input>
				<port id="0" precision="FP16">
					<dim>1</dim>
					<dim>16</dim>
					<dim>10130</dim>
				</port>
				<port id="1" precision="FP16">
					<dim>1</dim>
					<dim>16</dim>
					<dim>10130</dim>
				</port>
			</input>
			<output>
				<port id="2" names="794" precision="FP16">
					<dim>1</dim>
					<dim>16</dim>
					<dim>10130</dim>
				</port>
			</output>
		</layer>
		<layer id="67" name="Add_23" type="Add" version="opset1">
			<data auto_broadcast="numpy"/>
			<input>
				<port id="0" precision="FP16">
					<dim>1</dim>
					<dim>16</dim>
					<dim>10130</dim>
				</port>
				<port id="1" precision="FP16">
					<dim>1</dim>
					<dim>16</dim>
					<dim>10130</dim>
				</port>
			</input>
			<output>
				<port id="2" names="348" precision="FP16">
					<dim>1</dim>
					<dim>16</dim>
					<dim>10130</dim>
				</port>
			</output>
		</layer>
		<layer id="68" name="blocks.2.pre_process.weight" type="Const" version="opset1">
			<data element_type="f16" offset="335402" shape="16, 16, 1" size="512"/>
			<output>
				<port id="0" names="blocks.2.pre_process.weight" precision="FP16">
					<dim>16</dim>
					<dim>16</dim>
					<dim>1</dim>
				</port>
			</output>
		</layer>
		<layer id="69" name="Conv_24/WithoutBiases" type="Convolution" version="opset1">
			<data auto_pad="explicit" dilations="1" pads_begin="0" pads_end="0" strides="1"/>
			<input>
				<port id="0" precision="FP16">
					<dim>1</dim>
					<dim>16</dim>
					<dim>10130</dim>
				</port>
				<port id="1" precision="FP16">
					<dim>16</dim>
					<dim>16</dim>
					<dim>1</dim>
				</port>
			</input>
			<output>
				<port id="2" precision="FP16">
					<dim>1</dim>
					<dim>16</dim>
					<dim>10130</dim>
				</port>
			</output>
		</layer>
		<layer id="70" name="Conv_24/Dims10495" type="Const" version="opset1">
			<data element_type="f16" offset="335914" shape="1, 16, 1" size="32"/>
			<output>
				<port id="0" precision="FP16">
					<dim>1</dim>
					<dim>16</dim>
					<dim>1</dim>
				</port>
			</output>
		</layer>
		<layer id="71" name="Conv_24" type="Add" version="opset1">
			<data auto_broadcast="numpy"/>
			<input>
				<port id="0" precision="FP16">
					<dim>1</dim>
					<dim>16</dim>
					<dim>10130</dim>
				</port>
				<port id="1" precision="FP16">
					<dim>1</dim>
					<dim>16</dim>
					<dim>1</dim>
				</port>
			</input>
			<output>
				<port id="2" names="349" precision="FP16">
					<dim>1</dim>
					<dim>16</dim>
					<dim>10130</dim>
				</port>
			</output>
		</layer>
		<layer id="72" name="Relu_25" type="ReLU" version="opset1">
			<input>
				<port id="0" precision="FP16">
					<dim>1</dim>
					<dim>16</dim>
					<dim>10130</dim>
				</port>
			</input>
			<output>
				<port id="1" names="350" precision="FP16">
					<dim>1</dim>
					<dim>16</dim>
					<dim>10130</dim>
				</port>
			</output>
		</layer>
		<layer id="73" name="blocks.2.filter.weight" type="Const" version="opset1">
			<data element_type="f16" offset="335946" shape="32, 16, 2" size="2048"/>
			<output>
				<port id="0" names="blocks.2.filter.weight" precision="FP16">
					<dim>32</dim>
					<dim>16</dim>
					<dim>2</dim>
				</port>
			</output>
		</layer>
		<layer id="74" name="Conv_26/WithoutBiases" type="Convolution" version="opset1">
			<data auto_pad="explicit" dilations="4" pads_begin="0" pads_end="0" strides="1"/>
			<input>
				<port id="0" precision="FP16">
					<dim>1</dim>
					<dim>16</dim>
					<dim>10130</dim>
				</port>
				<port id="1" precision="FP16">
					<dim>32</dim>
					<dim>16</dim>
					<dim>2</dim>
				</port>
			</input>
			<output>
				<port id="2" precision="FP16">
					<dim>1</dim>
					<dim>32</dim>
					<dim>10126</dim>
				</port>
			</output>
		</layer>
		<layer id="75" name="Conv_26/Dims11113" type="Const" version="opset1">
			<data element_type="f16" offset="337994" shape="1, 32, 1" size="64"/>
			<output>
				<port id="0" precision="FP16">
					<dim>1</dim>
					<dim>32</dim>
					<dim>1</dim>
				</port>
			</output>
		</layer>
		<layer id="76" name="Conv_26" type="Add" version="opset1">
			<data auto_broadcast="numpy"/>
			<input>
				<port id="0" precision="FP16">
					<dim>1</dim>
					<dim>32</dim>
					<dim>10126</dim>
				</port>
				<port id="1" precision="FP16">
					<dim>1</dim>
					<dim>32</dim>
					<dim>1</dim>
				</port>
			</input>
			<output>
				<port id="2" names="351" precision="FP16">
					<dim>1</dim>
					<dim>32</dim>
					<dim>10126</dim>
				</port>
			</output>
		</layer>
		<layer id="77" name="877" type="Const" version="opset1">
			<data element_type="i64" offset="326336" shape="3" size="24"/>
			<output>
				<port id="0" precision="I64">
					<dim>3</dim>
				</port>
			</output>
		</layer>
		<layer id="78" name="878" type="Const" version="opset1">
			<data element_type="i64" offset="338058" shape="3" size="24"/>
			<output>
				<port id="0" precision="I64">
					<dim>3</dim>
				</port>
			</output>
		</layer>
		<layer id="79" name="Pad_27/pad_value_convert_input_port_0/value" type="Const" version="opset1">
			<data element_type="f16" offset="326384" shape="" size="2"/>
			<output>
				<port id="0" precision="FP16"/>
			</output>
		</layer>
		<layer id="80" name="Pad_27/pad_value_convert" type="ConvertLike" version="opset1">
			<input>
				<port id="0" precision="FP16"/>
				<port id="1" precision="FP16">
					<dim>1</dim>
					<dim>32</dim>
					<dim>10126</dim>
				</port>
			</input>
			<output>
				<port id="2" precision="FP16"/>
			</output>
		</layer>
		<layer id="81" name="Pad_27" type="Pad" version="opset1">
			<data pad_mode="constant"/>
			<input>
				<port id="0" precision="FP16">
					<dim>1</dim>
					<dim>32</dim>
					<dim>10126</dim>
				</port>
				<port id="1" precision="I64">
					<dim>3</dim>
				</port>
				<port id="2" precision="I64">
					<dim>3</dim>
				</port>
				<port id="3" precision="FP16"/>
			</input>
			<output>
				<port id="4" names="352" precision="FP16">
					<dim>1</dim>
					<dim>32</dim>
					<dim>10130</dim>
				</port>
			</output>
		</layer>
		<layer id="82" name="Tanh_30" type="Tanh" version="opset1">
			<input>
				<port id="0" precision="FP16">
					<dim>1</dim>
					<dim>32</dim>
					<dim>10130</dim>
				</port>
			</input>
			<output>
				<port id="1" names="355" precision="FP16">
					<dim>1</dim>
					<dim>32</dim>
					<dim>10130</dim>
				</port>
			</output>
		</layer>
		<layer id="83" name="blocks.2.gating.weight" type="Const" version="opset1">
			<data element_type="f16" offset="338082" shape="32, 16, 2" size="2048"/>
			<output>
				<port id="0" names="blocks.2.gating.weight" precision="FP16">
					<dim>32</dim>
					<dim>16</dim>
					<dim>2</dim>
				</port>
			</output>
		</layer>
		<layer id="84" name="Conv_28/WithoutBiases" type="Convolution" version="opset1">
			<data auto_pad="explicit" dilations="4" pads_begin="0" pads_end="0" strides="1"/>
			<input>
				<port id="0" precision="FP16">
					<dim>1</dim>
					<dim>16</dim>
					<dim>10130</dim>
				</port>
				<port id="1" precision="FP16">
					<dim>32</dim>
					<dim>16</dim>
					<dim>2</dim>
				</port>
			</input>
			<output>
				<port id="2" precision="FP16">
					<dim>1</dim>
					<dim>32</dim>
					<dim>10126</dim>
				</port>
			</output>
		</layer>
		<layer id="85" name="Conv_28/Dims10963" type="Const" version="opset1">
			<data element_type="f16" offset="340130" shape="1, 32, 1" size="64"/>
			<output>
				<port id="0" precision="FP16">
					<dim>1</dim>
					<dim>32</dim>
					<dim>1</dim>
				</port>
			</output>
		</layer>
		<layer id="86" name="Conv_28" type="Add" version="opset1">
			<data auto_broadcast="numpy"/>
			<input>
				<port id="0" precision="FP16">
					<dim>1</dim>
					<dim>32</dim>
					<dim>10126</dim>
				</port>
				<port id="1" precision="FP16">
					<dim>1</dim>
					<dim>32</dim>
					<dim>1</dim>
				</port>
			</input>
			<output>
				<port id="2" names="353" precision="FP16">
					<dim>1</dim>
					<dim>32</dim>
					<dim>10126</dim>
				</port>
			</output>
		</layer>
		<layer id="87" name="882" type="Const" version="opset1">
			<data element_type="i64" offset="326336" shape="3" size="24"/>
			<output>
				<port id="0" precision="I64">
					<dim>3</dim>
				</port>
			</output>
		</layer>
		<layer id="88" name="883" type="Const" version="opset1">
			<data element_type="i64" offset="338058" shape="3" size="24"/>
			<output>
				<port id="0" precision="I64">
					<dim>3</dim>
				</port>
			</output>
		</layer>
		<layer id="89" name="Pad_29/pad_value_convert_input_port_0/value" type="Const" version="opset1">
			<data element_type="f16" offset="326384" shape="" size="2"/>
			<output>
				<port id="0" precision="FP16"/>
			</output>
		</layer>
		<layer id="90" name="Pad_29/pad_value_convert" type="ConvertLike" version="opset1">
			<input>
				<port id="0" precision="FP16"/>
				<port id="1" precision="FP16">
					<dim>1</dim>
					<dim>32</dim>
					<dim>10126</dim>
				</port>
			</input>
			<output>
				<port id="2" precision="FP16"/>
			</output>
		</layer>
		<layer id="91" name="Pad_29" type="Pad" version="opset1">
			<data pad_mode="constant"/>
			<input>
				<port id="0" precision="FP16">
					<dim>1</dim>
					<dim>32</dim>
					<dim>10126</dim>
				</port>
				<port id="1" precision="I64">
					<dim>3</dim>
				</port>
				<port id="2" precision="I64">
					<dim>3</dim>
				</port>
				<port id="3" precision="FP16"/>
			</input>
			<output>
				<port id="4" names="354" precision="FP16">
					<dim>1</dim>
					<dim>32</dim>
					<dim>10130</dim>
				</port>
			</output>
		</layer>
		<layer id="92" name="Sigmoid_31" type="Sigmoid" version="opset1">
			<input>
				<port id="0" precision="FP16">
					<dim>1</dim>
					<dim>32</dim>
					<dim>10130</dim>
				</port>
			</input>
			<output>
				<port id="1" names="356" precision="FP16">
					<dim>1</dim>
					<dim>32</dim>
					<dim>10130</dim>
				</port>
			</output>
		</layer>
		<layer id="93" name="Mul_32" type="Multiply" version="opset1">
			<data auto_broadcast="numpy"/>
			<input>
				<port id="0" precision="FP16">
					<dim>1</dim>
					<dim>32</dim>
					<dim>10130</dim>
				</port>
				<port id="1" precision="FP16">
					<dim>1</dim>
					<dim>32</dim>
					<dim>10130</dim>
				</port>
			</input>
			<output>
				<port id="2" names="357" precision="FP16">
					<dim>1</dim>
					<dim>32</dim>
					<dim>10130</dim>
				</port>
			</output>
		</layer>
		<layer id="94" name="blocks.2.post_process.weight" type="Const" version="opset1">
			<data element_type="f16" offset="340194" shape="16, 32, 1" size="1024"/>
			<output>
				<port id="0" names="blocks.2.post_process.weight" precision="FP16">
					<dim>16</dim>
					<dim>32</dim>
					<dim>1</dim>
				</port>
			</output>
		</layer>
		<layer id="95" name="Conv_33/WithoutBiases" type="Convolution" version="opset1">
			<data auto_pad="explicit" dilations="1" pads_begin="0" pads_end="0" strides="1"/>
			<input>
				<port id="0" precision="FP16">
					<dim>1</dim>
					<dim>32</dim>
					<dim>10130</dim>
				</port>
				<port id="1" precision="FP16">
					<dim>16</dim>
					<dim>32</dim>
					<dim>1</dim>
				</port>
			</input>
			<output>
				<port id="2" precision="FP16">
					<dim>1</dim>
					<dim>16</dim>
					<dim>10130</dim>
				</port>
			</output>
		</layer>
		<layer id="96" name="Conv_33/Dims10711" type="Const" version="opset1">
			<data element_type="f16" offset="341218" shape="1, 16, 1" size="32"/>
			<output>
				<port id="0" precision="FP16">
					<dim>1</dim>
					<dim>16</dim>
					<dim>1</dim>
				</port>
			</output>
		</layer>
		<layer id="97" name="Conv_33" type="Add" version="opset1">
			<data auto_broadcast="numpy"/>
			<input>
				<port id="0" precision="FP16">
					<dim>1</dim>
					<dim>16</dim>
					<dim>10130</dim>
				</port>
				<port id="1" precision="FP16">
					<dim>1</dim>
					<dim>16</dim>
					<dim>1</dim>
				</port>
			</input>
			<output>
				<port id="2" names="358" precision="FP16">
					<dim>1</dim>
					<dim>16</dim>
					<dim>10130</dim>
				</port>
			</output>
		</layer>
		<layer id="98" name="Relu_34" type="ReLU" version="opset1">
			<input>
				<port id="0" precision="FP16">
					<dim>1</dim>
					<dim>16</dim>
					<dim>10130</dim>
				</port>
			</input>
			<output>
				<port id="1" names="359" precision="FP16">
					<dim>1</dim>
					<dim>16</dim>
					<dim>10130</dim>
				</port>
			</output>
		</layer>
		<layer id="99" name="Add_470" type="Add" version="opset1">
			<data auto_broadcast="numpy"/>
			<input>
				<port id="0" precision="FP16">
					<dim>1</dim>
					<dim>16</dim>
					<dim>10130</dim>
				</port>
				<port id="1" precision="FP16">
					<dim>1</dim>
					<dim>16</dim>
					<dim>10130</dim>
				</port>
			</input>
			<output>
				<port id="2" names="795" precision="FP16">
					<dim>1</dim>
					<dim>16</dim>
					<dim>10130</dim>
				</port>
			</output>
		</layer>
		<layer id="100" name="Add_35" type="Add" version="opset1">
			<data auto_broadcast="numpy"/>
			<input>
				<port id="0" precision="FP16">
					<dim>1</dim>
					<dim>16</dim>
					<dim>10130</dim>
				</port>
				<port id="1" precision="FP16">
					<dim>1</dim>
					<dim>16</dim>
					<dim>10130</dim>
				</port>
			</input>
			<output>
				<port id="2" names="360" precision="FP16">
					<dim>1</dim>
					<dim>16</dim>
					<dim>10130</dim>
				</port>
			</output>
		</layer>
		<layer id="101" name="blocks.3.pre_process.weight" type="Const" version="opset1">
			<data element_type="f16" offset="341250" shape="16, 16, 1" size="512"/>
			<output>
				<port id="0" names="blocks.3.pre_process.weight" precision="FP16">
					<dim>16</dim>
					<dim>16</dim>
					<dim>1</dim>
				</port>
			</output>
		</layer>
		<layer id="102" name="Conv_36/WithoutBiases" type="Convolution" version="opset1">
			<data auto_pad="explicit" dilations="1" pads_begin="0" pads_end="0" strides="1"/>
			<input>
				<port id="0" precision="FP16">
					<dim>1</dim>
					<dim>16</dim>
					<dim>10130</dim>
				</port>
				<port id="1" precision="FP16">
					<dim>16</dim>
					<dim>16</dim>
					<dim>1</dim>
				</port>
			</input>
			<output>
				<port id="2" precision="FP16">
					<dim>1</dim>
					<dim>16</dim>
					<dim>10130</dim>
				</port>
			</output>
		</layer>
		<layer id="103" name="Conv_36/Dims10957" type="Const" version="opset1">
			<data element_type="f16" offset="341762" shape="1, 16, 1" size="32"/>
			<output>
				<port id="0" precision="FP16">
					<dim>1</dim>
					<dim>16</dim>
					<dim>1</dim>
				</port>
			</output>
		</layer>
		<layer id="104" name="Conv_36" type="Add" version="opset1">
			<data auto_broadcast="numpy"/>
			<input>
				<port id="0" precision="FP16">
					<dim>1</dim>
					<dim>16</dim>
					<dim>10130</dim>
				</port>
				<port id="1" precision="FP16">
					<dim>1</dim>
					<dim>16</dim>
					<dim>1</dim>
				</port>
			</input>
			<output>
				<port id="2" names="361" precision="FP16">
					<dim>1</dim>
					<dim>16</dim>
					<dim>10130</dim>
				</port>
			</output>
		</layer>
		<layer id="105" name="Relu_37" type="ReLU" version="opset1">
			<input>
				<port id="0" precision="FP16">
					<dim>1</dim>
					<dim>16</dim>
					<dim>10130</dim>
				</port>
			</input>
			<output>
				<port id="1" names="362" precision="FP16">
					<dim>1</dim>
					<dim>16</dim>
					<dim>10130</dim>
				</port>
			</output>
		</layer>
		<layer id="106" name="blocks.3.filter.weight" type="Const" version="opset1">
			<data element_type="f16" offset="341794" shape="32, 16, 2" size="2048"/>
			<output>
				<port id="0" names="blocks.3.filter.weight" precision="FP16">
					<dim>32</dim>
					<dim>16</dim>
					<dim>2</dim>
				</port>
			</output>
		</layer>
		<layer id="107" name="Conv_38/WithoutBiases" type="Convolution" version="opset1">
			<data auto_pad="explicit" dilations="8" pads_begin="0" pads_end="0" strides="1"/>
			<input>
				<port id="0" precision="FP16">
					<dim>1</dim>
					<dim>16</dim>
					<dim>10130</dim>
				</port>
				<port id="1" precision="FP16">
					<dim>32</dim>
					<dim>16</dim>
					<dim>2</dim>
				</port>
			</input>
			<output>
				<port id="2" precision="FP16">
					<dim>1</dim>
					<dim>32</dim>
					<dim>10122</dim>
				</port>
			</output>
		</layer>
		<layer id="108" name="Conv_38/Dims11191" type="Const" version="opset1">
			<data element_type="f16" offset="343842" shape="1, 32, 1" size="64"/>
			<output>
				<port id="0" precision="FP16">
					<dim>1</dim>
					<dim>32</dim>
					<dim>1</dim>
				</port>
			</output>
		</layer>
		<layer id="109" name="Conv_38" type="Add" version="opset1">
			<data auto_broadcast="numpy"/>
			<input>
				<port id="0" precision="FP16">
					<dim>1</dim>
					<dim>32</dim>
					<dim>10122</dim>
				</port>
				<port id="1" precision="FP16">
					<dim>1</dim>
					<dim>32</dim>
					<dim>1</dim>
				</port>
			</input>
			<output>
				<port id="2" names="363" precision="FP16">
					<dim>1</dim>
					<dim>32</dim>
					<dim>10122</dim>
				</port>
			</output>
		</layer>
		<layer id="110" name="887" type="Const" version="opset1">
			<data element_type="i64" offset="326336" shape="3" size="24"/>
			<output>
				<port id="0" precision="I64">
					<dim>3</dim>
				</port>
			</output>
		</layer>
		<layer id="111" name="888" type="Const" version="opset1">
			<data element_type="i64" offset="343906" shape="3" size="24"/>
			<output>
				<port id="0" precision="I64">
					<dim>3</dim>
				</port>
			</output>
		</layer>
		<layer id="112" name="Pad_39/pad_value_convert_input_port_0/value" type="Const" version="opset1">
			<data element_type="f16" offset="326384" shape="" size="2"/>
			<output>
				<port id="0" precision="FP16"/>
			</output>
		</layer>
		<layer id="113" name="Pad_39/pad_value_convert" type="ConvertLike" version="opset1">
			<input>
				<port id="0" precision="FP16"/>
				<port id="1" precision="FP16">
					<dim>1</dim>
					<dim>32</dim>
					<dim>10122</dim>
				</port>
			</input>
			<output>
				<port id="2" precision="FP16"/>
			</output>
		</layer>
		<layer id="114" name="Pad_39" type="Pad" version="opset1">
			<data pad_mode="constant"/>
			<input>
				<port id="0" precision="FP16">
					<dim>1</dim>
					<dim>32</dim>
					<dim>10122</dim>
				</port>
				<port id="1" precision="I64">
					<dim>3</dim>
				</port>
				<port id="2" precision="I64">
					<dim>3</dim>
				</port>
				<port id="3" precision="FP16"/>
			</input>
			<output>
				<port id="4" names="364" precision="FP16">
					<dim>1</dim>
					<dim>32</dim>
					<dim>10130</dim>
				</port>
			</output>
		</layer>
		<layer id="115" name="Tanh_42" type="Tanh" version="opset1">
			<input>
				<port id="0" precision="FP16">
					<dim>1</dim>
					<dim>32</dim>
					<dim>10130</dim>
				</port>
			</input>
			<output>
				<port id="1" names="367" precision="FP16">
					<dim>1</dim>
					<dim>32</dim>
					<dim>10130</dim>
				</port>
			</output>
		</layer>
		<layer id="116" name="blocks.3.gating.weight" type="Const" version="opset1">
			<data element_type="f16" offset="343930" shape="32, 16, 2" size="2048"/>
			<output>
				<port id="0" names="blocks.3.gating.weight" precision="FP16">
					<dim>32</dim>
					<dim>16</dim>
					<dim>2</dim>
				</port>
			</output>
		</layer>
		<layer id="117" name="Conv_40/WithoutBiases" type="Convolution" version="opset1">
			<data auto_pad="explicit" dilations="8" pads_begin="0" pads_end="0" strides="1"/>
			<input>
				<port id="0" precision="FP16">
					<dim>1</dim>
					<dim>16</dim>
					<dim>10130</dim>
				</port>
				<port id="1" precision="FP16">
					<dim>32</dim>
					<dim>16</dim>
					<dim>2</dim>
				</port>
			</input>
			<output>
				<port id="2" precision="FP16">
					<dim>1</dim>
					<dim>32</dim>
					<dim>10122</dim>
				</port>
			</output>
		</layer>
		<layer id="118" name="Conv_40/Dims10831" type="Const" version="opset1">
			<data element_type="f16" offset="345978" shape="1, 32, 1" size="64"/>
			<output>
				<port id="0" precision="FP16">
					<dim>1</dim>
					<dim>32</dim>
					<dim>1</dim>
				</port>
			</output>
		</layer>
		<layer id="119" name="Conv_40" type="Add" version="opset1">
			<data auto_broadcast="numpy"/>
			<input>
				<port id="0" precision="FP16">
					<dim>1</dim>
					<dim>32</dim>
					<dim>10122</dim>
				</port>
				<port id="1" precision="FP16">
					<dim>1</dim>
					<dim>32</dim>
					<dim>1</dim>
				</port>
			</input>
			<output>
				<port id="2" names="365" precision="FP16">
					<dim>1</dim>
					<dim>32</dim>
					<dim>10122</dim>
				</port>
			</output>
		</layer>
		<layer id="120" name="892" type="Const" version="opset1">
			<data element_type="i64" offset="326336" shape="3" size="24"/>
			<output>
				<port id="0" precision="I64">
					<dim>3</dim>
				</port>
			</output>
		</layer>
		<layer id="121" name="893" type="Const" version="opset1">
			<data element_type="i64" offset="343906" shape="3" size="24"/>
			<output>
				<port id="0" precision="I64">
					<dim>3</dim>
				</port>
			</output>
		</layer>
		<layer id="122" name="Pad_41/pad_value_convert_input_port_0/value" type="Const" version="opset1">
			<data element_type="f16" offset="326384" shape="" size="2"/>
			<output>
				<port id="0" precision="FP16"/>
			</output>
		</layer>
		<layer id="123" name="Pad_41/pad_value_convert" type="ConvertLike" version="opset1">
			<input>
				<port id="0" precision="FP16"/>
				<port id="1" precision="FP16">
					<dim>1</dim>
					<dim>32</dim>
					<dim>10122</dim>
				</port>
			</input>
			<output>
				<port id="2" precision="FP16"/>
			</output>
		</layer>
		<layer id="124" name="Pad_41" type="Pad" version="opset1">
			<data pad_mode="constant"/>
			<input>
				<port id="0" precision="FP16">
					<dim>1</dim>
					<dim>32</dim>
					<dim>10122</dim>
				</port>
				<port id="1" precision="I64">
					<dim>3</dim>
				</port>
				<port id="2" precision="I64">
					<dim>3</dim>
				</port>
				<port id="3" precision="FP16"/>
			</input>
			<output>
				<port id="4" names="366" precision="FP16">
					<dim>1</dim>
					<dim>32</dim>
					<dim>10130</dim>
				</port>
			</output>
		</layer>
		<layer id="125" name="Sigmoid_43" type="Sigmoid" version="opset1">
			<input>
				<port id="0" precision="FP16">
					<dim>1</dim>
					<dim>32</dim>
					<dim>10130</dim>
				</port>
			</input>
			<output>
				<port id="1" names="368" precision="FP16">
					<dim>1</dim>
					<dim>32</dim>
					<dim>10130</dim>
				</port>
			</output>
		</layer>
		<layer id="126" name="Mul_44" type="Multiply" version="opset1">
			<data auto_broadcast="numpy"/>
			<input>
				<port id="0" precision="FP16">
					<dim>1</dim>
					<dim>32</dim>
					<dim>10130</dim>
				</port>
				<port id="1" precision="FP16">
					<dim>1</dim>
					<dim>32</dim>
					<dim>10130</dim>
				</port>
			</input>
			<output>
				<port id="2" names="369" precision="FP16">
					<dim>1</dim>
					<dim>32</dim>
					<dim>10130</dim>
				</port>
			</output>
		</layer>
		<layer id="127" name="blocks.3.post_process.weight" type="Const" version="opset1">
			<data element_type="f16" offset="346042" shape="16, 32, 1" size="1024"/>
			<output>
				<port id="0" names="blocks.3.post_process.weight" precision="FP16">
					<dim>16</dim>
					<dim>32</dim>
					<dim>1</dim>
				</port>
			</output>
		</layer>
		<layer id="128" name="Conv_45/WithoutBiases" type="Convolution" version="opset1">
			<data auto_pad="explicit" dilations="1" pads_begin="0" pads_end="0" strides="1"/>
			<input>
				<port id="0" precision="FP16">
					<dim>1</dim>
					<dim>32</dim>
					<dim>10130</dim>
				</port>
				<port id="1" precision="FP16">
					<dim>16</dim>
					<dim>32</dim>
					<dim>1</dim>
				</port>
			</input>
			<output>
				<port id="2" precision="FP16">
					<dim>1</dim>
					<dim>16</dim>
					<dim>10130</dim>
				</port>
			</output>
		</layer>
		<layer id="129" name="Conv_45/Dims10657" type="Const" version="opset1">
			<data element_type="f16" offset="347066" shape="1, 16, 1" size="32"/>
			<output>
				<port id="0" precision="FP16">
					<dim>1</dim>
					<dim>16</dim>
					<dim>1</dim>
				</port>
			</output>
		</layer>
		<layer id="130" name="Conv_45" type="Add" version="opset1">
			<data auto_broadcast="numpy"/>
			<input>
				<port id="0" precision="FP16">
					<dim>1</dim>
					<dim>16</dim>
					<dim>10130</dim>
				</port>
				<port id="1" precision="FP16">
					<dim>1</dim>
					<dim>16</dim>
					<dim>1</dim>
				</port>
			</input>
			<output>
				<port id="2" names="370" precision="FP16">
					<dim>1</dim>
					<dim>16</dim>
					<dim>10130</dim>
				</port>
			</output>
		</layer>
		<layer id="131" name="Relu_46" type="ReLU" version="opset1">
			<input>
				<port id="0" precision="FP16">
					<dim>1</dim>
					<dim>16</dim>
					<dim>10130</dim>
				</port>
			</input>
			<output>
				<port id="1" names="371" precision="FP16">
					<dim>1</dim>
					<dim>16</dim>
					<dim>10130</dim>
				</port>
			</output>
		</layer>
		<layer id="132" name="Add_471" type="Add" version="opset1">
			<data auto_broadcast="numpy"/>
			<input>
				<port id="0" precision="FP16">
					<dim>1</dim>
					<dim>16</dim>
					<dim>10130</dim>
				</port>
				<port id="1" precision="FP16">
					<dim>1</dim>
					<dim>16</dim>
					<dim>10130</dim>
				</port>
			</input>
			<output>
				<port id="2" names="796" precision="FP16">
					<dim>1</dim>
					<dim>16</dim>
					<dim>10130</dim>
				</port>
			</output>
		</layer>
		<layer id="133" name="Add_47" type="Add" version="opset1">
			<data auto_broadcast="numpy"/>
			<input>
				<port id="0" precision="FP16">
					<dim>1</dim>
					<dim>16</dim>
					<dim>10130</dim>
				</port>
				<port id="1" precision="FP16">
					<dim>1</dim>
					<dim>16</dim>
					<dim>10130</dim>
				</port>
			</input>
			<output>
				<port id="2" names="372" precision="FP16">
					<dim>1</dim>
					<dim>16</dim>
					<dim>10130</dim>
				</port>
			</output>
		</layer>
		<layer id="134" name="blocks.4.pre_process.weight" type="Const" version="opset1">
			<data element_type="f16" offset="347098" shape="16, 16, 1" size="512"/>
			<output>
				<port id="0" names="blocks.4.pre_process.weight" precision="FP16">
					<dim>16</dim>
					<dim>16</dim>
					<dim>1</dim>
				</port>
			</output>
		</layer>
		<layer id="135" name="Conv_48/WithoutBiases" type="Convolution" version="opset1">
			<data auto_pad="explicit" dilations="1" pads_begin="0" pads_end="0" strides="1"/>
			<input>
				<port id="0" precision="FP16">
					<dim>1</dim>
					<dim>16</dim>
					<dim>10130</dim>
				</port>
				<port id="1" precision="FP16">
					<dim>16</dim>
					<dim>16</dim>
					<dim>1</dim>
				</port>
			</input>
			<output>
				<port id="2" precision="FP16">
					<dim>1</dim>
					<dim>16</dim>
					<dim>10130</dim>
				</port>
			</output>
		</layer>
		<layer id="136" name="Conv_48/Dims11215" type="Const" version="opset1">
			<data element_type="f16" offset="347610" shape="1, 16, 1" size="32"/>
			<output>
				<port id="0" precision="FP16">
					<dim>1</dim>
					<dim>16</dim>
					<dim>1</dim>
				</port>
			</output>
		</layer>
		<layer id="137" name="Conv_48" type="Add" version="opset1">
			<data auto_broadcast="numpy"/>
			<input>
				<port id="0" precision="FP16">
					<dim>1</dim>
					<dim>16</dim>
					<dim>10130</dim>
				</port>
				<port id="1" precision="FP16">
					<dim>1</dim>
					<dim>16</dim>
					<dim>1</dim>
				</port>
			</input>
			<output>
				<port id="2" names="373" precision="FP16">
					<dim>1</dim>
					<dim>16</dim>
					<dim>10130</dim>
				</port>
			</output>
		</layer>
		<layer id="138" name="Relu_49" type="ReLU" version="opset1">
			<input>
				<port id="0" precision="FP16">
					<dim>1</dim>
					<dim>16</dim>
					<dim>10130</dim>
				</port>
			</input>
			<output>
				<port id="1" names="374" precision="FP16">
					<dim>1</dim>
					<dim>16</dim>
					<dim>10130</dim>
				</port>
			</output>
		</layer>
		<layer id="139" name="blocks.4.filter.weight" type="Const" version="opset1">
			<data element_type="f16" offset="347642" shape="32, 16, 2" size="2048"/>
			<output>
				<port id="0" names="blocks.4.filter.weight" precision="FP16">
					<dim>32</dim>
					<dim>16</dim>
					<dim>2</dim>
				</port>
			</output>
		</layer>
		<layer id="140" name="Conv_50/WithoutBiases" type="Convolution" version="opset1">
			<data auto_pad="explicit" dilations="16" pads_begin="0" pads_end="0" strides="1"/>
			<input>
				<port id="0" precision="FP16">
					<dim>1</dim>
					<dim>16</dim>
					<dim>10130</dim>
				</port>
				<port id="1" precision="FP16">
					<dim>32</dim>
					<dim>16</dim>
					<dim>2</dim>
				</port>
			</input>
			<output>
				<port id="2" precision="FP16">
					<dim>1</dim>
					<dim>32</dim>
					<dim>10114</dim>
				</port>
			</output>
		</layer>
		<layer id="141" name="Conv_50/Dims10969" type="Const" version="opset1">
			<data element_type="f16" offset="349690" shape="1, 32, 1" size="64"/>
			<output>
				<port id="0" precision="FP16">
					<dim>1</dim>
					<dim>32</dim>
					<dim>1</dim>
				</port>
			</output>
		</layer>
		<layer id="142" name="Conv_50" type="Add" version="opset1">
			<data auto_broadcast="numpy"/>
			<input>
				<port id="0" precision="FP16">
					<dim>1</dim>
					<dim>32</dim>
					<dim>10114</dim>
				</port>
				<port id="1" precision="FP16">
					<dim>1</dim>
					<dim>32</dim>
					<dim>1</dim>
				</port>
			</input>
			<output>
				<port id="2" names="375" precision="FP16">
					<dim>1</dim>
					<dim>32</dim>
					<dim>10114</dim>
				</port>
			</output>
		</layer>
		<layer id="143" name="897" type="Const" version="opset1">
			<data element_type="i64" offset="326336" shape="3" size="24"/>
			<output>
				<port id="0" precision="I64">
					<dim>3</dim>
				</port>
			</output>
		</layer>
		<layer id="144" name="898" type="Const" version="opset1">
			<data element_type="i64" offset="349754" shape="3" size="24"/>
			<output>
				<port id="0" precision="I64">
					<dim>3</dim>
				</port>
			</output>
		</layer>
		<layer id="145" name="Pad_51/pad_value_convert_input_port_0/value" type="Const" version="opset1">
			<data element_type="f16" offset="326384" shape="" size="2"/>
			<output>
				<port id="0" precision="FP16"/>
			</output>
		</layer>
		<layer id="146" name="Pad_51/pad_value_convert" type="ConvertLike" version="opset1">
			<input>
				<port id="0" precision="FP16"/>
				<port id="1" precision="FP16">
					<dim>1</dim>
					<dim>32</dim>
					<dim>10114</dim>
				</port>
			</input>
			<output>
				<port id="2" precision="FP16"/>
			</output>
		</layer>
		<layer id="147" name="Pad_51" type="Pad" version="opset1">
			<data pad_mode="constant"/>
			<input>
				<port id="0" precision="FP16">
					<dim>1</dim>
					<dim>32</dim>
					<dim>10114</dim>
				</port>
				<port id="1" precision="I64">
					<dim>3</dim>
				</port>
				<port id="2" precision="I64">
					<dim>3</dim>
				</port>
				<port id="3" precision="FP16"/>
			</input>
			<output>
				<port id="4" names="376" precision="FP16">
					<dim>1</dim>
					<dim>32</dim>
					<dim>10130</dim>
				</port>
			</output>
		</layer>
		<layer id="148" name="Tanh_54" type="Tanh" version="opset1">
			<input>
				<port id="0" precision="FP16">
					<dim>1</dim>
					<dim>32</dim>
					<dim>10130</dim>
				</port>
			</input>
			<output>
				<port id="1" names="379" precision="FP16">
					<dim>1</dim>
					<dim>32</dim>
					<dim>10130</dim>
				</port>
			</output>
		</layer>
		<layer id="149" name="blocks.4.gating.weight" type="Const" version="opset1">
			<data element_type="f16" offset="349778" shape="32, 16, 2" size="2048"/>
			<output>
				<port id="0" names="blocks.4.gating.weight" precision="FP16">
					<dim>32</dim>
					<dim>16</dim>
					<dim>2</dim>
				</port>
			</output>
		</layer>
		<layer id="150" name="Conv_52/WithoutBiases" type="Convolution" version="opset1">
			<data auto_pad="explicit" dilations="16" pads_begin="0" pads_end="0" strides="1"/>
			<input>
				<port id="0" precision="FP16">
					<dim>1</dim>
					<dim>16</dim>
					<dim>10130</dim>
				</port>
				<port id="1" precision="FP16">
					<dim>32</dim>
					<dim>16</dim>
					<dim>2</dim>
				</port>
			</input>
			<output>
				<port id="2" precision="FP16">
					<dim>1</dim>
					<dim>32</dim>
					<dim>10114</dim>
				</port>
			</output>
		</layer>
		<layer id="151" name="Conv_52/Dims10915" type="Const" version="opset1">
			<data element_type="f16" offset="351826" shape="1, 32, 1" size="64"/>
			<output>
				<port id="0" precision="FP16">
					<dim>1</dim>
					<dim>32</dim>
					<dim>1</dim>
				</port>
			</output>
		</layer>
		<layer id="152" name="Conv_52" type="Add" version="opset1">
			<data auto_broadcast="numpy"/>
			<input>
				<port id="0" precision="FP16">
					<dim>1</dim>
					<dim>32</dim>
					<dim>10114</dim>
				</port>
				<port id="1" precision="FP16">
					<dim>1</dim>
					<dim>32</dim>
					<dim>1</dim>
				</port>
			</input>
			<output>
				<port id="2" names="377" precision="FP16">
					<dim>1</dim>
					<dim>32</dim>
					<dim>10114</dim>
				</port>
			</output>
		</layer>
		<layer id="153" name="902" type="Const" version="opset1">
			<data element_type="i64" offset="326336" shape="3" size="24"/>
			<output>
				<port id="0" precision="I64">
					<dim>3</dim>
				</port>
			</output>
		</layer>
		<layer id="154" name="903" type="Const" version="opset1">
			<data element_type="i64" offset="349754" shape="3" size="24"/>
			<output>
				<port id="0" precision="I64">
					<dim>3</dim>
				</port>
			</output>
		</layer>
		<layer id="155" name="Pad_53/pad_value_convert_input_port_0/value" type="Const" version="opset1">
			<data element_type="f16" offset="326384" shape="" size="2"/>
			<output>
				<port id="0" precision="FP16"/>
			</output>
		</layer>
		<layer id="156" name="Pad_53/pad_value_convert" type="ConvertLike" version="opset1">
			<input>
				<port id="0" precision="FP16"/>
				<port id="1" precision="FP16">
					<dim>1</dim>
					<dim>32</dim>
					<dim>10114</dim>
				</port>
			</input>
			<output>
				<port id="2" precision="FP16"/>
			</output>
		</layer>
		<layer id="157" name="Pad_53" type="Pad" version="opset1">
			<data pad_mode="constant"/>
			<input>
				<port id="0" precision="FP16">
					<dim>1</dim>
					<dim>32</dim>
					<dim>10114</dim>
				</port>
				<port id="1" precision="I64">
					<dim>3</dim>
				</port>
				<port id="2" precision="I64">
					<dim>3</dim>
				</port>
				<port id="3" precision="FP16"/>
			</input>
			<output>
				<port id="4" names="378" precision="FP16">
					<dim>1</dim>
					<dim>32</dim>
					<dim>10130</dim>
				</port>
			</output>
		</layer>
		<layer id="158" name="Sigmoid_55" type="Sigmoid" version="opset1">
			<input>
				<port id="0" precision="FP16">
					<dim>1</dim>
					<dim>32</dim>
					<dim>10130</dim>
				</port>
			</input>
			<output>
				<port id="1" names="380" precision="FP16">
					<dim>1</dim>
					<dim>32</dim>
					<dim>10130</dim>
				</port>
			</output>
		</layer>
		<layer id="159" name="Mul_56" type="Multiply" version="opset1">
			<data auto_broadcast="numpy"/>
			<input>
				<port id="0" precision="FP16">
					<dim>1</dim>
					<dim>32</dim>
					<dim>10130</dim>
				</port>
				<port id="1" precision="FP16">
					<dim>1</dim>
					<dim>32</dim>
					<dim>10130</dim>
				</port>
			</input>
			<output>
				<port id="2" names="381" precision="FP16">
					<dim>1</dim>
					<dim>32</dim>
					<dim>10130</dim>
				</port>
			</output>
		</layer>
		<layer id="160" name="blocks.4.post_process.weight" type="Const" version="opset1">
			<data element_type="f16" offset="351890" shape="16, 32, 1" size="1024"/>
			<output>
				<port id="0" names="blocks.4.post_process.weight" precision="FP16">
					<dim>16</dim>
					<dim>32</dim>
					<dim>1</dim>
				</port>
			</output>
		</layer>
		<layer id="161" name="Conv_57/WithoutBiases" type="Convolution" version="opset1">
			<data auto_pad="explicit" dilations="1" pads_begin="0" pads_end="0" strides="1"/>
			<input>
				<port id="0" precision="FP16">
					<dim>1</dim>
					<dim>32</dim>
					<dim>10130</dim>
				</port>
				<port id="1" precision="FP16">
					<dim>16</dim>
					<dim>32</dim>
					<dim>1</dim>
				</port>
			</input>
			<output>
				<port id="2" precision="FP16">
					<dim>1</dim>
					<dim>16</dim>
					<dim>10130</dim>
				</port>
			</output>
		</layer>
		<layer id="162" name="Conv_57/Dims11179" type="Const" version="opset1">
			<data element_type="f16" offset="352914" shape="1, 16, 1" size="32"/>
			<output>
				<port id="0" precision="FP16">
					<dim>1</dim>
					<dim>16</dim>
					<dim>1</dim>
				</port>
			</output>
		</layer>
		<layer id="163" name="Conv_57" type="Add" version="opset1">
			<data auto_broadcast="numpy"/>
			<input>
				<port id="0" precision="FP16">
					<dim>1</dim>
					<dim>16</dim>
					<dim>10130</dim>
				</port>
				<port id="1" precision="FP16">
					<dim>1</dim>
					<dim>16</dim>
					<dim>1</dim>
				</port>
			</input>
			<output>
				<port id="2" names="382" precision="FP16">
					<dim>1</dim>
					<dim>16</dim>
					<dim>10130</dim>
				</port>
			</output>
		</layer>
		<layer id="164" name="Relu_58" type="ReLU" version="opset1">
			<input>
				<port id="0" precision="FP16">
					<dim>1</dim>
					<dim>16</dim>
					<dim>10130</dim>
				</port>
			</input>
			<output>
				<port id="1" names="383" precision="FP16">
					<dim>1</dim>
					<dim>16</dim>
					<dim>10130</dim>
				</port>
			</output>
		</layer>
		<layer id="165" name="Add_472" type="Add" version="opset1">
			<data auto_broadcast="numpy"/>
			<input>
				<port id="0" precision="FP16">
					<dim>1</dim>
					<dim>16</dim>
					<dim>10130</dim>
				</port>
				<port id="1" precision="FP16">
					<dim>1</dim>
					<dim>16</dim>
					<dim>10130</dim>
				</port>
			</input>
			<output>
				<port id="2" names="797" precision="FP16">
					<dim>1</dim>
					<dim>16</dim>
					<dim>10130</dim>
				</port>
			</output>
		</layer>
		<layer id="166" name="Add_59" type="Add" version="opset1">
			<data auto_broadcast="numpy"/>
			<input>
				<port id="0" precision="FP16">
					<dim>1</dim>
					<dim>16</dim>
					<dim>10130</dim>
				</port>
				<port id="1" precision="FP16">
					<dim>1</dim>
					<dim>16</dim>
					<dim>10130</dim>
				</port>
			</input>
			<output>
				<port id="2" names="384" precision="FP16">
					<dim>1</dim>
					<dim>16</dim>
					<dim>10130</dim>
				</port>
			</output>
		</layer>
		<layer id="167" name="blocks.5.pre_process.weight" type="Const" version="opset1">
			<data element_type="f16" offset="352946" shape="16, 16, 1" size="512"/>
			<output>
				<port id="0" names="blocks.5.pre_process.weight" precision="FP16">
					<dim>16</dim>
					<dim>16</dim>
					<dim>1</dim>
				</port>
			</output>
		</layer>
		<layer id="168" name="Conv_60/WithoutBiases" type="Convolution" version="opset1">
			<data auto_pad="explicit" dilations="1" pads_begin="0" pads_end="0" strides="1"/>
			<input>
				<port id="0" precision="FP16">
					<dim>1</dim>
					<dim>16</dim>
					<dim>10130</dim>
				</port>
				<port id="1" precision="FP16">
					<dim>16</dim>
					<dim>16</dim>
					<dim>1</dim>
				</port>
			</input>
			<output>
				<port id="2" precision="FP16">
					<dim>1</dim>
					<dim>16</dim>
					<dim>10130</dim>
				</port>
			</output>
		</layer>
		<layer id="169" name="Conv_60/Dims10471" type="Const" version="opset1">
			<data element_type="f16" offset="353458" shape="1, 16, 1" size="32"/>
			<output>
				<port id="0" precision="FP16">
					<dim>1</dim>
					<dim>16</dim>
					<dim>1</dim>
				</port>
			</output>
		</layer>
		<layer id="170" name="Conv_60" type="Add" version="opset1">
			<data auto_broadcast="numpy"/>
			<input>
				<port id="0" precision="FP16">
					<dim>1</dim>
					<dim>16</dim>
					<dim>10130</dim>
				</port>
				<port id="1" precision="FP16">
					<dim>1</dim>
					<dim>16</dim>
					<dim>1</dim>
				</port>
			</input>
			<output>
				<port id="2" names="385" precision="FP16">
					<dim>1</dim>
					<dim>16</dim>
					<dim>10130</dim>
				</port>
			</output>
		</layer>
		<layer id="171" name="Relu_61" type="ReLU" version="opset1">
			<input>
				<port id="0" precision="FP16">
					<dim>1</dim>
					<dim>16</dim>
					<dim>10130</dim>
				</port>
			</input>
			<output>
				<port id="1" names="386" precision="FP16">
					<dim>1</dim>
					<dim>16</dim>
					<dim>10130</dim>
				</port>
			</output>
		</layer>
		<layer id="172" name="blocks.5.filter.weight" type="Const" version="opset1">
			<data element_type="f16" offset="353490" shape="32, 16, 2" size="2048"/>
			<output>
				<port id="0" names="blocks.5.filter.weight" precision="FP16">
					<dim>32</dim>
					<dim>16</dim>
					<dim>2</dim>
				</port>
			</output>
		</layer>
		<layer id="173" name="Conv_62/WithoutBiases" type="Convolution" version="opset1">
			<data auto_pad="explicit" dilations="32" pads_begin="0" pads_end="0" strides="1"/>
			<input>
				<port id="0" precision="FP16">
					<dim>1</dim>
					<dim>16</dim>
					<dim>10130</dim>
				</port>
				<port id="1" precision="FP16">
					<dim>32</dim>
					<dim>16</dim>
					<dim>2</dim>
				</port>
			</input>
			<output>
				<port id="2" precision="FP16">
					<dim>1</dim>
					<dim>32</dim>
					<dim>10098</dim>
				</port>
			</output>
		</layer>
		<layer id="174" name="Conv_62/Dims11119" type="Const" version="opset1">
			<data element_type="f16" offset="355538" shape="1, 32, 1" size="64"/>
			<output>
				<port id="0" precision="FP16">
					<dim>1</dim>
					<dim>32</dim>
					<dim>1</dim>
				</port>
			</output>
		</layer>
		<layer id="175" name="Conv_62" type="Add" version="opset1">
			<data auto_broadcast="numpy"/>
			<input>
				<port id="0" precision="FP16">
					<dim>1</dim>
					<dim>32</dim>
					<dim>10098</dim>
				</port>
				<port id="1" precision="FP16">
					<dim>1</dim>
					<dim>32</dim>
					<dim>1</dim>
				</port>
			</input>
			<output>
				<port id="2" names="387" precision="FP16">
					<dim>1</dim>
					<dim>32</dim>
					<dim>10098</dim>
				</port>
			</output>
		</layer>
		<layer id="176" name="907" type="Const" version="opset1">
			<data element_type="i64" offset="326336" shape="3" size="24"/>
			<output>
				<port id="0" precision="I64">
					<dim>3</dim>
				</port>
			</output>
		</layer>
		<layer id="177" name="908" type="Const" version="opset1">
			<data element_type="i64" offset="355602" shape="3" size="24"/>
			<output>
				<port id="0" precision="I64">
					<dim>3</dim>
				</port>
			</output>
		</layer>
		<layer id="178" name="Pad_63/pad_value_convert_input_port_0/value" type="Const" version="opset1">
			<data element_type="f16" offset="326384" shape="" size="2"/>
			<output>
				<port id="0" precision="FP16"/>
			</output>
		</layer>
		<layer id="179" name="Pad_63/pad_value_convert" type="ConvertLike" version="opset1">
			<input>
				<port id="0" precision="FP16"/>
				<port id="1" precision="FP16">
					<dim>1</dim>
					<dim>32</dim>
					<dim>10098</dim>
				</port>
			</input>
			<output>
				<port id="2" precision="FP16"/>
			</output>
		</layer>
		<layer id="180" name="Pad_63" type="Pad" version="opset1">
			<data pad_mode="constant"/>
			<input>
				<port id="0" precision="FP16">
					<dim>1</dim>
					<dim>32</dim>
					<dim>10098</dim>
				</port>
				<port id="1" precision="I64">
					<dim>3</dim>
				</port>
				<port id="2" precision="I64">
					<dim>3</dim>
				</port>
				<port id="3" precision="FP16"/>
			</input>
			<output>
				<port id="4" names="388" precision="FP16">
					<dim>1</dim>
					<dim>32</dim>
					<dim>10130</dim>
				</port>
			</output>
		</layer>
		<layer id="181" name="Tanh_66" type="Tanh" version="opset1">
			<input>
				<port id="0" precision="FP16">
					<dim>1</dim>
					<dim>32</dim>
					<dim>10130</dim>
				</port>
			</input>
			<output>
				<port id="1" names="391" precision="FP16">
					<dim>1</dim>
					<dim>32</dim>
					<dim>10130</dim>
				</port>
			</output>
		</layer>
		<layer id="182" name="blocks.5.gating.weight" type="Const" version="opset1">
			<data element_type="f16" offset="355626" shape="32, 16, 2" size="2048"/>
			<output>
				<port id="0" names="blocks.5.gating.weight" precision="FP16">
					<dim>32</dim>
					<dim>16</dim>
					<dim>2</dim>
				</port>
			</output>
		</layer>
		<layer id="183" name="Conv_64/WithoutBiases" type="Convolution" version="opset1">
			<data auto_pad="explicit" dilations="32" pads_begin="0" pads_end="0" strides="1"/>
			<input>
				<port id="0" precision="FP16">
					<dim>1</dim>
					<dim>16</dim>
					<dim>10130</dim>
				</port>
				<port id="1" precision="FP16">
					<dim>32</dim>
					<dim>16</dim>
					<dim>2</dim>
				</port>
			</input>
			<output>
				<port id="2" precision="FP16">
					<dim>1</dim>
					<dim>32</dim>
					<dim>10098</dim>
				</port>
			</output>
		</layer>
		<layer id="184" name="Conv_64/Dims10975" type="Const" version="opset1">
			<data element_type="f16" offset="357674" shape="1, 32, 1" size="64"/>
			<output>
				<port id="0" precision="FP16">
					<dim>1</dim>
					<dim>32</dim>
					<dim>1</dim>
				</port>
			</output>
		</layer>
		<layer id="185" name="Conv_64" type="Add" version="opset1">
			<data auto_broadcast="numpy"/>
			<input>
				<port id="0" precision="FP16">
					<dim>1</dim>
					<dim>32</dim>
					<dim>10098</dim>
				</port>
				<port id="1" precision="FP16">
					<dim>1</dim>
					<dim>32</dim>
					<dim>1</dim>
				</port>
			</input>
			<output>
				<port id="2" names="389" precision="FP16">
					<dim>1</dim>
					<dim>32</dim>
					<dim>10098</dim>
				</port>
			</output>
		</layer>
		<layer id="186" name="912" type="Const" version="opset1">
			<data element_type="i64" offset="326336" shape="3" size="24"/>
			<output>
				<port id="0" precision="I64">
					<dim>3</dim>
				</port>
			</output>
		</layer>
		<layer id="187" name="913" type="Const" version="opset1">
			<data element_type="i64" offset="355602" shape="3" size="24"/>
			<output>
				<port id="0" precision="I64">
					<dim>3</dim>
				</port>
			</output>
		</layer>
		<layer id="188" name="Pad_65/pad_value_convert_input_port_0/value" type="Const" version="opset1">
			<data element_type="f16" offset="326384" shape="" size="2"/>
			<output>
				<port id="0" precision="FP16"/>
			</output>
		</layer>
		<layer id="189" name="Pad_65/pad_value_convert" type="ConvertLike" version="opset1">
			<input>
				<port id="0" precision="FP16"/>
				<port id="1" precision="FP16">
					<dim>1</dim>
					<dim>32</dim>
					<dim>10098</dim>
				</port>
			</input>
			<output>
				<port id="2" precision="FP16"/>
			</output>
		</layer>
		<layer id="190" name="Pad_65" type="Pad" version="opset1">
			<data pad_mode="constant"/>
			<input>
				<port id="0" precision="FP16">
					<dim>1</dim>
					<dim>32</dim>
					<dim>10098</dim>
				</port>
				<port id="1" precision="I64">
					<dim>3</dim>
				</port>
				<port id="2" precision="I64">
					<dim>3</dim>
				</port>
				<port id="3" precision="FP16"/>
			</input>
			<output>
				<port id="4" names="390" precision="FP16">
					<dim>1</dim>
					<dim>32</dim>
					<dim>10130</dim>
				</port>
			</output>
		</layer>
		<layer id="191" name="Sigmoid_67" type="Sigmoid" version="opset1">
			<input>
				<port id="0" precision="FP16">
					<dim>1</dim>
					<dim>32</dim>
					<dim>10130</dim>
				</port>
			</input>
			<output>
				<port id="1" names="392" precision="FP16">
					<dim>1</dim>
					<dim>32</dim>
					<dim>10130</dim>
				</port>
			</output>
		</layer>
		<layer id="192" name="Mul_68" type="Multiply" version="opset1">
			<data auto_broadcast="numpy"/>
			<input>
				<port id="0" precision="FP16">
					<dim>1</dim>
					<dim>32</dim>
					<dim>10130</dim>
				</port>
				<port id="1" precision="FP16">
					<dim>1</dim>
					<dim>32</dim>
					<dim>10130</dim>
				</port>
			</input>
			<output>
				<port id="2" names="393" precision="FP16">
					<dim>1</dim>
					<dim>32</dim>
					<dim>10130</dim>
				</port>
			</output>
		</layer>
		<layer id="193" name="blocks.5.post_process.weight" type="Const" version="opset1">
			<data element_type="f16" offset="357738" shape="16, 32, 1" size="1024"/>
			<output>
				<port id="0" names="blocks.5.post_process.weight" precision="FP16">
					<dim>16</dim>
					<dim>32</dim>
					<dim>1</dim>
				</port>
			</output>
		</layer>
		<layer id="194" name="Conv_69/WithoutBiases" type="Convolution" version="opset1">
			<data auto_pad="explicit" dilations="1" pads_begin="0" pads_end="0" strides="1"/>
			<input>
				<port id="0" precision="FP16">
					<dim>1</dim>
					<dim>32</dim>
					<dim>10130</dim>
				</port>
				<port id="1" precision="FP16">
					<dim>16</dim>
					<dim>32</dim>
					<dim>1</dim>
				</port>
			</input>
			<output>
				<port id="2" precision="FP16">
					<dim>1</dim>
					<dim>16</dim>
					<dim>10130</dim>
				</port>
			</output>
		</layer>
		<layer id="195" name="Conv_69/Dims10345" type="Const" version="opset1">
			<data element_type="f16" offset="358762" shape="1, 16, 1" size="32"/>
			<output>
				<port id="0" precision="FP16">
					<dim>1</dim>
					<dim>16</dim>
					<dim>1</dim>
				</port>
			</output>
		</layer>
		<layer id="196" name="Conv_69" type="Add" version="opset1">
			<data auto_broadcast="numpy"/>
			<input>
				<port id="0" precision="FP16">
					<dim>1</dim>
					<dim>16</dim>
					<dim>10130</dim>
				</port>
				<port id="1" precision="FP16">
					<dim>1</dim>
					<dim>16</dim>
					<dim>1</dim>
				</port>
			</input>
			<output>
				<port id="2" names="394" precision="FP16">
					<dim>1</dim>
					<dim>16</dim>
					<dim>10130</dim>
				</port>
			</output>
		</layer>
		<layer id="197" name="Relu_70" type="ReLU" version="opset1">
			<input>
				<port id="0" precision="FP16">
					<dim>1</dim>
					<dim>16</dim>
					<dim>10130</dim>
				</port>
			</input>
			<output>
				<port id="1" names="395" precision="FP16">
					<dim>1</dim>
					<dim>16</dim>
					<dim>10130</dim>
				</port>
			</output>
		</layer>
		<layer id="198" name="Add_473" type="Add" version="opset1">
			<data auto_broadcast="numpy"/>
			<input>
				<port id="0" precision="FP16">
					<dim>1</dim>
					<dim>16</dim>
					<dim>10130</dim>
				</port>
				<port id="1" precision="FP16">
					<dim>1</dim>
					<dim>16</dim>
					<dim>10130</dim>
				</port>
			</input>
			<output>
				<port id="2" names="798" precision="FP16">
					<dim>1</dim>
					<dim>16</dim>
					<dim>10130</dim>
				</port>
			</output>
		</layer>
		<layer id="199" name="Add_71" type="Add" version="opset1">
			<data auto_broadcast="numpy"/>
			<input>
				<port id="0" precision="FP16">
					<dim>1</dim>
					<dim>16</dim>
					<dim>10130</dim>
				</port>
				<port id="1" precision="FP16">
					<dim>1</dim>
					<dim>16</dim>
					<dim>10130</dim>
				</port>
			</input>
			<output>
				<port id="2" names="396" precision="FP16">
					<dim>1</dim>
					<dim>16</dim>
					<dim>10130</dim>
				</port>
			</output>
		</layer>
		<layer id="200" name="blocks.6.pre_process.weight" type="Const" version="opset1">
			<data element_type="f16" offset="358794" shape="16, 16, 1" size="512"/>
			<output>
				<port id="0" names="blocks.6.pre_process.weight" precision="FP16">
					<dim>16</dim>
					<dim>16</dim>
					<dim>1</dim>
				</port>
			</output>
		</layer>
		<layer id="201" name="Conv_72/WithoutBiases" type="Convolution" version="opset1">
			<data auto_pad="explicit" dilations="1" pads_begin="0" pads_end="0" strides="1"/>
			<input>
				<port id="0" precision="FP16">
					<dim>1</dim>
					<dim>16</dim>
					<dim>10130</dim>
				</port>
				<port id="1" precision="FP16">
					<dim>16</dim>
					<dim>16</dim>
					<dim>1</dim>
				</port>
			</input>
			<output>
				<port id="2" precision="FP16">
					<dim>1</dim>
					<dim>16</dim>
					<dim>10130</dim>
				</port>
			</output>
		</layer>
		<layer id="202" name="Conv_72/Dims11065" type="Const" version="opset1">
			<data element_type="f16" offset="359306" shape="1, 16, 1" size="32"/>
			<output>
				<port id="0" precision="FP16">
					<dim>1</dim>
					<dim>16</dim>
					<dim>1</dim>
				</port>
			</output>
		</layer>
		<layer id="203" name="Conv_72" type="Add" version="opset1">
			<data auto_broadcast="numpy"/>
			<input>
				<port id="0" precision="FP16">
					<dim>1</dim>
					<dim>16</dim>
					<dim>10130</dim>
				</port>
				<port id="1" precision="FP16">
					<dim>1</dim>
					<dim>16</dim>
					<dim>1</dim>
				</port>
			</input>
			<output>
				<port id="2" names="397" precision="FP16">
					<dim>1</dim>
					<dim>16</dim>
					<dim>10130</dim>
				</port>
			</output>
		</layer>
		<layer id="204" name="Relu_73" type="ReLU" version="opset1">
			<input>
				<port id="0" precision="FP16">
					<dim>1</dim>
					<dim>16</dim>
					<dim>10130</dim>
				</port>
			</input>
			<output>
				<port id="1" names="398" precision="FP16">
					<dim>1</dim>
					<dim>16</dim>
					<dim>10130</dim>
				</port>
			</output>
		</layer>
		<layer id="205" name="blocks.6.filter.weight" type="Const" version="opset1">
			<data element_type="f16" offset="359338" shape="32, 16, 2" size="2048"/>
			<output>
				<port id="0" names="blocks.6.filter.weight" precision="FP16">
					<dim>32</dim>
					<dim>16</dim>
					<dim>2</dim>
				</port>
			</output>
		</layer>
		<layer id="206" name="Conv_74/WithoutBiases" type="Convolution" version="opset1">
			<data auto_pad="explicit" dilations="64" pads_begin="0" pads_end="0" strides="1"/>
			<input>
				<port id="0" precision="FP16">
					<dim>1</dim>
					<dim>16</dim>
					<dim>10130</dim>
				</port>
				<port id="1" precision="FP16">
					<dim>32</dim>
					<dim>16</dim>
					<dim>2</dim>
				</port>
			</input>
			<output>
				<port id="2" precision="FP16">
					<dim>1</dim>
					<dim>32</dim>
					<dim>10066</dim>
				</port>
			</output>
		</layer>
		<layer id="207" name="Conv_74/Dims11239" type="Const" version="opset1">
			<data element_type="f16" offset="361386" shape="1, 32, 1" size="64"/>
			<output>
				<port id="0" precision="FP16">
					<dim>1</dim>
					<dim>32</dim>
					<dim>1</dim>
				</port>
			</output>
		</layer>
		<layer id="208" name="Conv_74" type="Add" version="opset1">
			<data auto_broadcast="numpy"/>
			<input>
				<port id="0" precision="FP16">
					<dim>1</dim>
					<dim>32</dim>
					<dim>10066</dim>
				</port>
				<port id="1" precision="FP16">
					<dim>1</dim>
					<dim>32</dim>
					<dim>1</dim>
				</port>
			</input>
			<output>
				<port id="2" names="399" precision="FP16">
					<dim>1</dim>
					<dim>32</dim>
					<dim>10066</dim>
				</port>
			</output>
		</layer>
		<layer id="209" name="917" type="Const" version="opset1">
			<data element_type="i64" offset="326336" shape="3" size="24"/>
			<output>
				<port id="0" precision="I64">
					<dim>3</dim>
				</port>
			</output>
		</layer>
		<layer id="210" name="918" type="Const" version="opset1">
			<data element_type="i64" offset="361450" shape="3" size="24"/>
			<output>
				<port id="0" precision="I64">
					<dim>3</dim>
				</port>
			</output>
		</layer>
		<layer id="211" name="Pad_75/pad_value_convert_input_port_0/value" type="Const" version="opset1">
			<data element_type="f16" offset="326384" shape="" size="2"/>
			<output>
				<port id="0" precision="FP16"/>
			</output>
		</layer>
		<layer id="212" name="Pad_75/pad_value_convert" type="ConvertLike" version="opset1">
			<input>
				<port id="0" precision="FP16"/>
				<port id="1" precision="FP16">
					<dim>1</dim>
					<dim>32</dim>
					<dim>10066</dim>
				</port>
			</input>
			<output>
				<port id="2" precision="FP16"/>
			</output>
		</layer>
		<layer id="213" name="Pad_75" type="Pad" version="opset1">
			<data pad_mode="constant"/>
			<input>
				<port id="0" precision="FP16">
					<dim>1</dim>
					<dim>32</dim>
					<dim>10066</dim>
				</port>
				<port id="1" precision="I64">
					<dim>3</dim>
				</port>
				<port id="2" precision="I64">
					<dim>3</dim>
				</port>
				<port id="3" precision="FP16"/>
			</input>
			<output>
				<port id="4" names="400" precision="FP16">
					<dim>1</dim>
					<dim>32</dim>
					<dim>10130</dim>
				</port>
			</output>
		</layer>
		<layer id="214" name="Tanh_78" type="Tanh" version="opset1">
			<input>
				<port id="0" precision="FP16">
					<dim>1</dim>
					<dim>32</dim>
					<dim>10130</dim>
				</port>
			</input>
			<output>
				<port id="1" names="403" precision="FP16">
					<dim>1</dim>
					<dim>32</dim>
					<dim>10130</dim>
				</port>
			</output>
		</layer>
		<layer id="215" name="blocks.6.gating.weight" type="Const" version="opset1">
			<data element_type="f16" offset="361474" shape="32, 16, 2" size="2048"/>
			<output>
				<port id="0" names="blocks.6.gating.weight" precision="FP16">
					<dim>32</dim>
					<dim>16</dim>
					<dim>2</dim>
				</port>
			</output>
		</layer>
		<layer id="216" name="Conv_76/WithoutBiases" type="Convolution" version="opset1">
			<data auto_pad="explicit" dilations="64" pads_begin="0" pads_end="0" strides="1"/>
			<input>
				<port id="0" precision="FP16">
					<dim>1</dim>
					<dim>16</dim>
					<dim>10130</dim>
				</port>
				<port id="1" precision="FP16">
					<dim>32</dim>
					<dim>16</dim>
					<dim>2</dim>
				</port>
			</input>
			<output>
				<port id="2" precision="FP16">
					<dim>1</dim>
					<dim>32</dim>
					<dim>10066</dim>
				</port>
			</output>
		</layer>
		<layer id="217" name="Conv_76/Dims11173" type="Const" version="opset1">
			<data element_type="f16" offset="363522" shape="1, 32, 1" size="64"/>
			<output>
				<port id="0" precision="FP16">
					<dim>1</dim>
					<dim>32</dim>
					<dim>1</dim>
				</port>
			</output>
		</layer>
		<layer id="218" name="Conv_76" type="Add" version="opset1">
			<data auto_broadcast="numpy"/>
			<input>
				<port id="0" precision="FP16">
					<dim>1</dim>
					<dim>32</dim>
					<dim>10066</dim>
				</port>
				<port id="1" precision="FP16">
					<dim>1</dim>
					<dim>32</dim>
					<dim>1</dim>
				</port>
			</input>
			<output>
				<port id="2" names="401" precision="FP16">
					<dim>1</dim>
					<dim>32</dim>
					<dim>10066</dim>
				</port>
			</output>
		</layer>
		<layer id="219" name="922" type="Const" version="opset1">
			<data element_type="i64" offset="326336" shape="3" size="24"/>
			<output>
				<port id="0" precision="I64">
					<dim>3</dim>
				</port>
			</output>
		</layer>
		<layer id="220" name="923" type="Const" version="opset1">
			<data element_type="i64" offset="361450" shape="3" size="24"/>
			<output>
				<port id="0" precision="I64">
					<dim>3</dim>
				</port>
			</output>
		</layer>
		<layer id="221" name="Pad_77/pad_value_convert_input_port_0/value" type="Const" version="opset1">
			<data element_type="f16" offset="326384" shape="" size="2"/>
			<output>
				<port id="0" precision="FP16"/>
			</output>
		</layer>
		<layer id="222" name="Pad_77/pad_value_convert" type="ConvertLike" version="opset1">
			<input>
				<port id="0" precision="FP16"/>
				<port id="1" precision="FP16">
					<dim>1</dim>
					<dim>32</dim>
					<dim>10066</dim>
				</port>
			</input>
			<output>
				<port id="2" precision="FP16"/>
			</output>
		</layer>
		<layer id="223" name="Pad_77" type="Pad" version="opset1">
			<data pad_mode="constant"/>
			<input>
				<port id="0" precision="FP16">
					<dim>1</dim>
					<dim>32</dim>
					<dim>10066</dim>
				</port>
				<port id="1" precision="I64">
					<dim>3</dim>
				</port>
				<port id="2" precision="I64">
					<dim>3</dim>
				</port>
				<port id="3" precision="FP16"/>
			</input>
			<output>
				<port id="4" names="402" precision="FP16">
					<dim>1</dim>
					<dim>32</dim>
					<dim>10130</dim>
				</port>
			</output>
		</layer>
		<layer id="224" name="Sigmoid_79" type="Sigmoid" version="opset1">
			<input>
				<port id="0" precision="FP16">
					<dim>1</dim>
					<dim>32</dim>
					<dim>10130</dim>
				</port>
			</input>
			<output>
				<port id="1" names="404" precision="FP16">
					<dim>1</dim>
					<dim>32</dim>
					<dim>10130</dim>
				</port>
			</output>
		</layer>
		<layer id="225" name="Mul_80" type="Multiply" version="opset1">
			<data auto_broadcast="numpy"/>
			<input>
				<port id="0" precision="FP16">
					<dim>1</dim>
					<dim>32</dim>
					<dim>10130</dim>
				</port>
				<port id="1" precision="FP16">
					<dim>1</dim>
					<dim>32</dim>
					<dim>10130</dim>
				</port>
			</input>
			<output>
				<port id="2" names="405" precision="FP16">
					<dim>1</dim>
					<dim>32</dim>
					<dim>10130</dim>
				</port>
			</output>
		</layer>
		<layer id="226" name="blocks.6.post_process.weight" type="Const" version="opset1">
			<data element_type="f16" offset="363586" shape="16, 32, 1" size="1024"/>
			<output>
				<port id="0" names="blocks.6.post_process.weight" precision="FP16">
					<dim>16</dim>
					<dim>32</dim>
					<dim>1</dim>
				</port>
			</output>
		</layer>
		<layer id="227" name="Conv_81/WithoutBiases" type="Convolution" version="opset1">
			<data auto_pad="explicit" dilations="1" pads_begin="0" pads_end="0" strides="1"/>
			<input>
				<port id="0" precision="FP16">
					<dim>1</dim>
					<dim>32</dim>
					<dim>10130</dim>
				</port>
				<port id="1" precision="FP16">
					<dim>16</dim>
					<dim>32</dim>
					<dim>1</dim>
				</port>
			</input>
			<output>
				<port id="2" precision="FP16">
					<dim>1</dim>
					<dim>16</dim>
					<dim>10130</dim>
				</port>
			</output>
		</layer>
		<layer id="228" name="Conv_81/Dims10399" type="Const" version="opset1">
			<data element_type="f16" offset="364610" shape="1, 16, 1" size="32"/>
			<output>
				<port id="0" precision="FP16">
					<dim>1</dim>
					<dim>16</dim>
					<dim>1</dim>
				</port>
			</output>
		</layer>
		<layer id="229" name="Conv_81" type="Add" version="opset1">
			<data auto_broadcast="numpy"/>
			<input>
				<port id="0" precision="FP16">
					<dim>1</dim>
					<dim>16</dim>
					<dim>10130</dim>
				</port>
				<port id="1" precision="FP16">
					<dim>1</dim>
					<dim>16</dim>
					<dim>1</dim>
				</port>
			</input>
			<output>
				<port id="2" names="406" precision="FP16">
					<dim>1</dim>
					<dim>16</dim>
					<dim>10130</dim>
				</port>
			</output>
		</layer>
		<layer id="230" name="Relu_82" type="ReLU" version="opset1">
			<input>
				<port id="0" precision="FP16">
					<dim>1</dim>
					<dim>16</dim>
					<dim>10130</dim>
				</port>
			</input>
			<output>
				<port id="1" names="407" precision="FP16">
					<dim>1</dim>
					<dim>16</dim>
					<dim>10130</dim>
				</port>
			</output>
		</layer>
		<layer id="231" name="Add_474" type="Add" version="opset1">
			<data auto_broadcast="numpy"/>
			<input>
				<port id="0" precision="FP16">
					<dim>1</dim>
					<dim>16</dim>
					<dim>10130</dim>
				</port>
				<port id="1" precision="FP16">
					<dim>1</dim>
					<dim>16</dim>
					<dim>10130</dim>
				</port>
			</input>
			<output>
				<port id="2" names="799" precision="FP16">
					<dim>1</dim>
					<dim>16</dim>
					<dim>10130</dim>
				</port>
			</output>
		</layer>
		<layer id="232" name="Add_83" type="Add" version="opset1">
			<data auto_broadcast="numpy"/>
			<input>
				<port id="0" precision="FP16">
					<dim>1</dim>
					<dim>16</dim>
					<dim>10130</dim>
				</port>
				<port id="1" precision="FP16">
					<dim>1</dim>
					<dim>16</dim>
					<dim>10130</dim>
				</port>
			</input>
			<output>
				<port id="2" names="408" precision="FP16">
					<dim>1</dim>
					<dim>16</dim>
					<dim>10130</dim>
				</port>
			</output>
		</layer>
		<layer id="233" name="blocks.7.pre_process.weight" type="Const" version="opset1">
			<data element_type="f16" offset="364642" shape="16, 16, 1" size="512"/>
			<output>
				<port id="0" names="blocks.7.pre_process.weight" precision="FP16">
					<dim>16</dim>
					<dim>16</dim>
					<dim>1</dim>
				</port>
			</output>
		</layer>
		<layer id="234" name="Conv_84/WithoutBiases" type="Convolution" version="opset1">
			<data auto_pad="explicit" dilations="1" pads_begin="0" pads_end="0" strides="1"/>
			<input>
				<port id="0" precision="FP16">
					<dim>1</dim>
					<dim>16</dim>
					<dim>10130</dim>
				</port>
				<port id="1" precision="FP16">
					<dim>16</dim>
					<dim>16</dim>
					<dim>1</dim>
				</port>
			</input>
			<output>
				<port id="2" precision="FP16">
					<dim>1</dim>
					<dim>16</dim>
					<dim>10130</dim>
				</port>
			</output>
		</layer>
		<layer id="235" name="Conv_84/Dims10813" type="Const" version="opset1">
			<data element_type="f16" offset="365154" shape="1, 16, 1" size="32"/>
			<output>
				<port id="0" precision="FP16">
					<dim>1</dim>
					<dim>16</dim>
					<dim>1</dim>
				</port>
			</output>
		</layer>
		<layer id="236" name="Conv_84" type="Add" version="opset1">
			<data auto_broadcast="numpy"/>
			<input>
				<port id="0" precision="FP16">
					<dim>1</dim>
					<dim>16</dim>
					<dim>10130</dim>
				</port>
				<port id="1" precision="FP16">
					<dim>1</dim>
					<dim>16</dim>
					<dim>1</dim>
				</port>
			</input>
			<output>
				<port id="2" names="409" precision="FP16">
					<dim>1</dim>
					<dim>16</dim>
					<dim>10130</dim>
				</port>
			</output>
		</layer>
		<layer id="237" name="Relu_85" type="ReLU" version="opset1">
			<input>
				<port id="0" precision="FP16">
					<dim>1</dim>
					<dim>16</dim>
					<dim>10130</dim>
				</port>
			</input>
			<output>
				<port id="1" names="410" precision="FP16">
					<dim>1</dim>
					<dim>16</dim>
					<dim>10130</dim>
				</port>
			</output>
		</layer>
		<layer id="238" name="blocks.7.filter.weight" type="Const" version="opset1">
			<data element_type="f16" offset="365186" shape="32, 16, 2" size="2048"/>
			<output>
				<port id="0" names="blocks.7.filter.weight" precision="FP16">
					<dim>32</dim>
					<dim>16</dim>
					<dim>2</dim>
				</port>
			</output>
		</layer>
		<layer id="239" name="Conv_86/WithoutBiases" type="Convolution" version="opset1">
			<data auto_pad="explicit" dilations="128" pads_begin="0" pads_end="0" strides="1"/>
			<input>
				<port id="0" precision="FP16">
					<dim>1</dim>
					<dim>16</dim>
					<dim>10130</dim>
				</port>
				<port id="1" precision="FP16">
					<dim>32</dim>
					<dim>16</dim>
					<dim>2</dim>
				</port>
			</input>
			<output>
				<port id="2" precision="FP16">
					<dim>1</dim>
					<dim>32</dim>
					<dim>10002</dim>
				</port>
			</output>
		</layer>
		<layer id="240" name="Conv_86/Dims10453" type="Const" version="opset1">
			<data element_type="f16" offset="367234" shape="1, 32, 1" size="64"/>
			<output>
				<port id="0" precision="FP16">
					<dim>1</dim>
					<dim>32</dim>
					<dim>1</dim>
				</port>
			</output>
		</layer>
		<layer id="241" name="Conv_86" type="Add" version="opset1">
			<data auto_broadcast="numpy"/>
			<input>
				<port id="0" precision="FP16">
					<dim>1</dim>
					<dim>32</dim>
					<dim>10002</dim>
				</port>
				<port id="1" precision="FP16">
					<dim>1</dim>
					<dim>32</dim>
					<dim>1</dim>
				</port>
			</input>
			<output>
				<port id="2" names="411" precision="FP16">
					<dim>1</dim>
					<dim>32</dim>
					<dim>10002</dim>
				</port>
			</output>
		</layer>
		<layer id="242" name="927" type="Const" version="opset1">
			<data element_type="i64" offset="326336" shape="3" size="24"/>
			<output>
				<port id="0" precision="I64">
					<dim>3</dim>
				</port>
			</output>
		</layer>
		<layer id="243" name="928" type="Const" version="opset1">
			<data element_type="i64" offset="367298" shape="3" size="24"/>
			<output>
				<port id="0" precision="I64">
					<dim>3</dim>
				</port>
			</output>
		</layer>
		<layer id="244" name="Pad_87/pad_value_convert_input_port_0/value" type="Const" version="opset1">
			<data element_type="f16" offset="326384" shape="" size="2"/>
			<output>
				<port id="0" precision="FP16"/>
			</output>
		</layer>
		<layer id="245" name="Pad_87/pad_value_convert" type="ConvertLike" version="opset1">
			<input>
				<port id="0" precision="FP16"/>
				<port id="1" precision="FP16">
					<dim>1</dim>
					<dim>32</dim>
					<dim>10002</dim>
				</port>
			</input>
			<output>
				<port id="2" precision="FP16"/>
			</output>
		</layer>
		<layer id="246" name="Pad_87" type="Pad" version="opset1">
			<data pad_mode="constant"/>
			<input>
				<port id="0" precision="FP16">
					<dim>1</dim>
					<dim>32</dim>
					<dim>10002</dim>
				</port>
				<port id="1" precision="I64">
					<dim>3</dim>
				</port>
				<port id="2" precision="I64">
					<dim>3</dim>
				</port>
				<port id="3" precision="FP16"/>
			</input>
			<output>
				<port id="4" names="412" precision="FP16">
					<dim>1</dim>
					<dim>32</dim>
					<dim>10130</dim>
				</port>
			</output>
		</layer>
		<layer id="247" name="Tanh_90" type="Tanh" version="opset1">
			<input>
				<port id="0" precision="FP16">
					<dim>1</dim>
					<dim>32</dim>
					<dim>10130</dim>
				</port>
			</input>
			<output>
				<port id="1" names="415" precision="FP16">
					<dim>1</dim>
					<dim>32</dim>
					<dim>10130</dim>
				</port>
			</output>
		</layer>
		<layer id="248" name="blocks.7.gating.weight" type="Const" version="opset1">
			<data element_type="f16" offset="367322" shape="32, 16, 2" size="2048"/>
			<output>
				<port id="0" names="blocks.7.gating.weight" precision="FP16">
					<dim>32</dim>
					<dim>16</dim>
					<dim>2</dim>
				</port>
			</output>
		</layer>
		<layer id="249" name="Conv_88/WithoutBiases" type="Convolution" version="opset1">
			<data auto_pad="explicit" dilations="128" pads_begin="0" pads_end="0" strides="1"/>
			<input>
				<port id="0" precision="FP16">
					<dim>1</dim>
					<dim>16</dim>
					<dim>10130</dim>
				</port>
				<port id="1" precision="FP16">
					<dim>32</dim>
					<dim>16</dim>
					<dim>2</dim>
				</port>
			</input>
			<output>
				<port id="2" precision="FP16">
					<dim>1</dim>
					<dim>32</dim>
					<dim>10002</dim>
				</port>
			</output>
		</layer>
		<layer id="250" name="Conv_88/Dims10897" type="Const" version="opset1">
			<data element_type="f16" offset="369370" shape="1, 32, 1" size="64"/>
			<output>
				<port id="0" precision="FP16">
					<dim>1</dim>
					<dim>32</dim>
					<dim>1</dim>
				</port>
			</output>
		</layer>
		<layer id="251" name="Conv_88" type="Add" version="opset1">
			<data auto_broadcast="numpy"/>
			<input>
				<port id="0" precision="FP16">
					<dim>1</dim>
					<dim>32</dim>
					<dim>10002</dim>
				</port>
				<port id="1" precision="FP16">
					<dim>1</dim>
					<dim>32</dim>
					<dim>1</dim>
				</port>
			</input>
			<output>
				<port id="2" names="413" precision="FP16">
					<dim>1</dim>
					<dim>32</dim>
					<dim>10002</dim>
				</port>
			</output>
		</layer>
		<layer id="252" name="932" type="Const" version="opset1">
			<data element_type="i64" offset="326336" shape="3" size="24"/>
			<output>
				<port id="0" precision="I64">
					<dim>3</dim>
				</port>
			</output>
		</layer>
		<layer id="253" name="933" type="Const" version="opset1">
			<data element_type="i64" offset="367298" shape="3" size="24"/>
			<output>
				<port id="0" precision="I64">
					<dim>3</dim>
				</port>
			</output>
		</layer>
		<layer id="254" name="Pad_89/pad_value_convert_input_port_0/value" type="Const" version="opset1">
			<data element_type="f16" offset="326384" shape="" size="2"/>
			<output>
				<port id="0" precision="FP16"/>
			</output>
		</layer>
		<layer id="255" name="Pad_89/pad_value_convert" type="ConvertLike" version="opset1">
			<input>
				<port id="0" precision="FP16"/>
				<port id="1" precision="FP16">
					<dim>1</dim>
					<dim>32</dim>
					<dim>10002</dim>
				</port>
			</input>
			<output>
				<port id="2" precision="FP16"/>
			</output>
		</layer>
		<layer id="256" name="Pad_89" type="Pad" version="opset1">
			<data pad_mode="constant"/>
			<input>
				<port id="0" precision="FP16">
					<dim>1</dim>
					<dim>32</dim>
					<dim>10002</dim>
				</port>
				<port id="1" precision="I64">
					<dim>3</dim>
				</port>
				<port id="2" precision="I64">
					<dim>3</dim>
				</port>
				<port id="3" precision="FP16"/>
			</input>
			<output>
				<port id="4" names="414" precision="FP16">
					<dim>1</dim>
					<dim>32</dim>
					<dim>10130</dim>
				</port>
			</output>
		</layer>
		<layer id="257" name="Sigmoid_91" type="Sigmoid" version="opset1">
			<input>
				<port id="0" precision="FP16">
					<dim>1</dim>
					<dim>32</dim>
					<dim>10130</dim>
				</port>
			</input>
			<output>
				<port id="1" names="416" precision="FP16">
					<dim>1</dim>
					<dim>32</dim>
					<dim>10130</dim>
				</port>
			</output>
		</layer>
		<layer id="258" name="Mul_92" type="Multiply" version="opset1">
			<data auto_broadcast="numpy"/>
			<input>
				<port id="0" precision="FP16">
					<dim>1</dim>
					<dim>32</dim>
					<dim>10130</dim>
				</port>
				<port id="1" precision="FP16">
					<dim>1</dim>
					<dim>32</dim>
					<dim>10130</dim>
				</port>
			</input>
			<output>
				<port id="2" names="417" precision="FP16">
					<dim>1</dim>
					<dim>32</dim>
					<dim>10130</dim>
				</port>
			</output>
		</layer>
		<layer id="259" name="blocks.7.post_process.weight" type="Const" version="opset1">
			<data element_type="f16" offset="369434" shape="16, 32, 1" size="1024"/>
			<output>
				<port id="0" names="blocks.7.post_process.weight" precision="FP16">
					<dim>16</dim>
					<dim>32</dim>
					<dim>1</dim>
				</port>
			</output>
		</layer>
		<layer id="260" name="Conv_93/WithoutBiases" type="Convolution" version="opset1">
			<data auto_pad="explicit" dilations="1" pads_begin="0" pads_end="0" strides="1"/>
			<input>
				<port id="0" precision="FP16">
					<dim>1</dim>
					<dim>32</dim>
					<dim>10130</dim>
				</port>
				<port id="1" precision="FP16">
					<dim>16</dim>
					<dim>32</dim>
					<dim>1</dim>
				</port>
			</input>
			<output>
				<port id="2" precision="FP16">
					<dim>1</dim>
					<dim>16</dim>
					<dim>10130</dim>
				</port>
			</output>
		</layer>
		<layer id="261" name="Conv_93/Dims11107" type="Const" version="opset1">
			<data element_type="f16" offset="370458" shape="1, 16, 1" size="32"/>
			<output>
				<port id="0" precision="FP16">
					<dim>1</dim>
					<dim>16</dim>
					<dim>1</dim>
				</port>
			</output>
		</layer>
		<layer id="262" name="Conv_93" type="Add" version="opset1">
			<data auto_broadcast="numpy"/>
			<input>
				<port id="0" precision="FP16">
					<dim>1</dim>
					<dim>16</dim>
					<dim>10130</dim>
				</port>
				<port id="1" precision="FP16">
					<dim>1</dim>
					<dim>16</dim>
					<dim>1</dim>
				</port>
			</input>
			<output>
				<port id="2" names="418" precision="FP16">
					<dim>1</dim>
					<dim>16</dim>
					<dim>10130</dim>
				</port>
			</output>
		</layer>
		<layer id="263" name="Relu_94" type="ReLU" version="opset1">
			<input>
				<port id="0" precision="FP16">
					<dim>1</dim>
					<dim>16</dim>
					<dim>10130</dim>
				</port>
			</input>
			<output>
				<port id="1" names="419" precision="FP16">
					<dim>1</dim>
					<dim>16</dim>
					<dim>10130</dim>
				</port>
			</output>
		</layer>
		<layer id="264" name="Add_475" type="Add" version="opset1">
			<data auto_broadcast="numpy"/>
			<input>
				<port id="0" precision="FP16">
					<dim>1</dim>
					<dim>16</dim>
					<dim>10130</dim>
				</port>
				<port id="1" precision="FP16">
					<dim>1</dim>
					<dim>16</dim>
					<dim>10130</dim>
				</port>
			</input>
			<output>
				<port id="2" names="800" precision="FP16">
					<dim>1</dim>
					<dim>16</dim>
					<dim>10130</dim>
				</port>
			</output>
		</layer>
		<layer id="265" name="Add_95" type="Add" version="opset1">
			<data auto_broadcast="numpy"/>
			<input>
				<port id="0" precision="FP16">
					<dim>1</dim>
					<dim>16</dim>
					<dim>10130</dim>
				</port>
				<port id="1" precision="FP16">
					<dim>1</dim>
					<dim>16</dim>
					<dim>10130</dim>
				</port>
			</input>
			<output>
				<port id="2" names="420" precision="FP16">
					<dim>1</dim>
					<dim>16</dim>
					<dim>10130</dim>
				</port>
			</output>
		</layer>
		<layer id="266" name="blocks.8.pre_process.weight" type="Const" version="opset1">
			<data element_type="f16" offset="370490" shape="16, 16, 1" size="512"/>
			<output>
				<port id="0" names="blocks.8.pre_process.weight" precision="FP16">
					<dim>16</dim>
					<dim>16</dim>
					<dim>1</dim>
				</port>
			</output>
		</layer>
		<layer id="267" name="Conv_96/WithoutBiases" type="Convolution" version="opset1">
			<data auto_pad="explicit" dilations="1" pads_begin="0" pads_end="0" strides="1"/>
			<input>
				<port id="0" precision="FP16">
					<dim>1</dim>
					<dim>16</dim>
					<dim>10130</dim>
				</port>
				<port id="1" precision="FP16">
					<dim>16</dim>
					<dim>16</dim>
					<dim>1</dim>
				</port>
			</input>
			<output>
				<port id="2" precision="FP16">
					<dim>1</dim>
					<dim>16</dim>
					<dim>10130</dim>
				</port>
			</output>
		</layer>
		<layer id="268" name="Conv_96/Dims11137" type="Const" version="opset1">
			<data element_type="f16" offset="371002" shape="1, 16, 1" size="32"/>
			<output>
				<port id="0" precision="FP16">
					<dim>1</dim>
					<dim>16</dim>
					<dim>1</dim>
				</port>
			</output>
		</layer>
		<layer id="269" name="Conv_96" type="Add" version="opset1">
			<data auto_broadcast="numpy"/>
			<input>
				<port id="0" precision="FP16">
					<dim>1</dim>
					<dim>16</dim>
					<dim>10130</dim>
				</port>
				<port id="1" precision="FP16">
					<dim>1</dim>
					<dim>16</dim>
					<dim>1</dim>
				</port>
			</input>
			<output>
				<port id="2" names="421" precision="FP16">
					<dim>1</dim>
					<dim>16</dim>
					<dim>10130</dim>
				</port>
			</output>
		</layer>
		<layer id="270" name="Relu_97" type="ReLU" version="opset1">
			<input>
				<port id="0" precision="FP16">
					<dim>1</dim>
					<dim>16</dim>
					<dim>10130</dim>
				</port>
			</input>
			<output>
				<port id="1" names="422" precision="FP16">
					<dim>1</dim>
					<dim>16</dim>
					<dim>10130</dim>
				</port>
			</output>
		</layer>
		<layer id="271" name="blocks.8.filter.weight" type="Const" version="opset1">
			<data element_type="f16" offset="371034" shape="32, 16, 2" size="2048"/>
			<output>
				<port id="0" names="blocks.8.filter.weight" precision="FP16">
					<dim>32</dim>
					<dim>16</dim>
					<dim>2</dim>
				</port>
			</output>
		</layer>
		<layer id="272" name="Conv_98/WithoutBiases" type="Convolution" version="opset1">
			<data auto_pad="explicit" dilations="256" pads_begin="0" pads_end="0" strides="1"/>
			<input>
				<port id="0" precision="FP16">
					<dim>1</dim>
					<dim>16</dim>
					<dim>10130</dim>
				</port>
				<port id="1" precision="FP16">
					<dim>32</dim>
					<dim>16</dim>
					<dim>2</dim>
				</port>
			</input>
			<output>
				<port id="2" precision="FP16">
					<dim>1</dim>
					<dim>32</dim>
					<dim>9874</dim>
				</port>
			</output>
		</layer>
		<layer id="273" name="Conv_98/Dims10987" type="Const" version="opset1">
			<data element_type="f16" offset="373082" shape="1, 32, 1" size="64"/>
			<output>
				<port id="0" precision="FP16">
					<dim>1</dim>
					<dim>32</dim>
					<dim>1</dim>
				</port>
			</output>
		</layer>
		<layer id="274" name="Conv_98" type="Add" version="opset1">
			<data auto_broadcast="numpy"/>
			<input>
				<port id="0" precision="FP16">
					<dim>1</dim>
					<dim>32</dim>
					<dim>9874</dim>
				</port>
				<port id="1" precision="FP16">
					<dim>1</dim>
					<dim>32</dim>
					<dim>1</dim>
				</port>
			</input>
			<output>
				<port id="2" names="423" precision="FP16">
					<dim>1</dim>
					<dim>32</dim>
					<dim>9874</dim>
				</port>
			</output>
		</layer>
		<layer id="275" name="937" type="Const" version="opset1">
			<data element_type="i64" offset="326336" shape="3" size="24"/>
			<output>
				<port id="0" precision="I64">
					<dim>3</dim>
				</port>
			</output>
		</layer>
		<layer id="276" name="938" type="Const" version="opset1">
			<data element_type="i64" offset="373146" shape="3" size="24"/>
			<output>
				<port id="0" precision="I64">
					<dim>3</dim>
				</port>
			</output>
		</layer>
		<layer id="277" name="Pad_99/pad_value_convert_input_port_0/value" type="Const" version="opset1">
			<data element_type="f16" offset="326384" shape="" size="2"/>
			<output>
				<port id="0" precision="FP16"/>
			</output>
		</layer>
		<layer id="278" name="Pad_99/pad_value_convert" type="ConvertLike" version="opset1">
			<input>
				<port id="0" precision="FP16"/>
				<port id="1" precision="FP16">
					<dim>1</dim>
					<dim>32</dim>
					<dim>9874</dim>
				</port>
			</input>
			<output>
				<port id="2" precision="FP16"/>
			</output>
		</layer>
		<layer id="279" name="Pad_99" type="Pad" version="opset1">
			<data pad_mode="constant"/>
			<input>
				<port id="0" precision="FP16">
					<dim>1</dim>
					<dim>32</dim>
					<dim>9874</dim>
				</port>
				<port id="1" precision="I64">
					<dim>3</dim>
				</port>
				<port id="2" precision="I64">
					<dim>3</dim>
				</port>
				<port id="3" precision="FP16"/>
			</input>
			<output>
				<port id="4" names="424" precision="FP16">
					<dim>1</dim>
					<dim>32</dim>
					<dim>10130</dim>
				</port>
			</output>
		</layer>
		<layer id="280" name="Tanh_102" type="Tanh" version="opset1">
			<input>
				<port id="0" precision="FP16">
					<dim>1</dim>
					<dim>32</dim>
					<dim>10130</dim>
				</port>
			</input>
			<output>
				<port id="1" names="427" precision="FP16">
					<dim>1</dim>
					<dim>32</dim>
					<dim>10130</dim>
				</port>
			</output>
		</layer>
		<layer id="281" name="blocks.8.gating.weight" type="Const" version="opset1">
			<data element_type="f16" offset="373170" shape="32, 16, 2" size="2048"/>
			<output>
				<port id="0" names="blocks.8.gating.weight" precision="FP16">
					<dim>32</dim>
					<dim>16</dim>
					<dim>2</dim>
				</port>
			</output>
		</layer>
		<layer id="282" name="Conv_100/WithoutBiases" type="Convolution" version="opset1">
			<data auto_pad="explicit" dilations="256" pads_begin="0" pads_end="0" strides="1"/>
			<input>
				<port id="0" precision="FP16">
					<dim>1</dim>
					<dim>16</dim>
					<dim>10130</dim>
				</port>
				<port id="1" precision="FP16">
					<dim>32</dim>
					<dim>16</dim>
					<dim>2</dim>
				</port>
			</input>
			<output>
				<port id="2" precision="FP16">
					<dim>1</dim>
					<dim>32</dim>
					<dim>9874</dim>
				</port>
			</output>
		</layer>
		<layer id="283" name="Conv_100/Dims11161" type="Const" version="opset1">
			<data element_type="f16" offset="375218" shape="1, 32, 1" size="64"/>
			<output>
				<port id="0" precision="FP16">
					<dim>1</dim>
					<dim>32</dim>
					<dim>1</dim>
				</port>
			</output>
		</layer>
		<layer id="284" name="Conv_100" type="Add" version="opset1">
			<data auto_broadcast="numpy"/>
			<input>
				<port id="0" precision="FP16">
					<dim>1</dim>
					<dim>32</dim>
					<dim>9874</dim>
				</port>
				<port id="1" precision="FP16">
					<dim>1</dim>
					<dim>32</dim>
					<dim>1</dim>
				</port>
			</input>
			<output>
				<port id="2" names="425" precision="FP16">
					<dim>1</dim>
					<dim>32</dim>
					<dim>9874</dim>
				</port>
			</output>
		</layer>
		<layer id="285" name="942" type="Const" version="opset1">
			<data element_type="i64" offset="326336" shape="3" size="24"/>
			<output>
				<port id="0" precision="I64">
					<dim>3</dim>
				</port>
			</output>
		</layer>
		<layer id="286" name="943" type="Const" version="opset1">
			<data element_type="i64" offset="373146" shape="3" size="24"/>
			<output>
				<port id="0" precision="I64">
					<dim>3</dim>
				</port>
			</output>
		</layer>
		<layer id="287" name="Pad_101/pad_value_convert_input_port_0/value" type="Const" version="opset1">
			<data element_type="f16" offset="326384" shape="" size="2"/>
			<output>
				<port id="0" precision="FP16"/>
			</output>
		</layer>
		<layer id="288" name="Pad_101/pad_value_convert" type="ConvertLike" version="opset1">
			<input>
				<port id="0" precision="FP16"/>
				<port id="1" precision="FP16">
					<dim>1</dim>
					<dim>32</dim>
					<dim>9874</dim>
				</port>
			</input>
			<output>
				<port id="2" precision="FP16"/>
			</output>
		</layer>
		<layer id="289" name="Pad_101" type="Pad" version="opset1">
			<data pad_mode="constant"/>
			<input>
				<port id="0" precision="FP16">
					<dim>1</dim>
					<dim>32</dim>
					<dim>9874</dim>
				</port>
				<port id="1" precision="I64">
					<dim>3</dim>
				</port>
				<port id="2" precision="I64">
					<dim>3</dim>
				</port>
				<port id="3" precision="FP16"/>
			</input>
			<output>
				<port id="4" names="426" precision="FP16">
					<dim>1</dim>
					<dim>32</dim>
					<dim>10130</dim>
				</port>
			</output>
		</layer>
		<layer id="290" name="Sigmoid_103" type="Sigmoid" version="opset1">
			<input>
				<port id="0" precision="FP16">
					<dim>1</dim>
					<dim>32</dim>
					<dim>10130</dim>
				</port>
			</input>
			<output>
				<port id="1" names="428" precision="FP16">
					<dim>1</dim>
					<dim>32</dim>
					<dim>10130</dim>
				</port>
			</output>
		</layer>
		<layer id="291" name="Mul_104" type="Multiply" version="opset1">
			<data auto_broadcast="numpy"/>
			<input>
				<port id="0" precision="FP16">
					<dim>1</dim>
					<dim>32</dim>
					<dim>10130</dim>
				</port>
				<port id="1" precision="FP16">
					<dim>1</dim>
					<dim>32</dim>
					<dim>10130</dim>
				</port>
			</input>
			<output>
				<port id="2" names="429" precision="FP16">
					<dim>1</dim>
					<dim>32</dim>
					<dim>10130</dim>
				</port>
			</output>
		</layer>
		<layer id="292" name="blocks.8.post_process.weight" type="Const" version="opset1">
			<data element_type="f16" offset="375282" shape="16, 32, 1" size="1024"/>
			<output>
				<port id="0" names="blocks.8.post_process.weight" precision="FP16">
					<dim>16</dim>
					<dim>32</dim>
					<dim>1</dim>
				</port>
			</output>
		</layer>
		<layer id="293" name="Conv_105/WithoutBiases" type="Convolution" version="opset1">
			<data auto_pad="explicit" dilations="1" pads_begin="0" pads_end="0" strides="1"/>
			<input>
				<port id="0" precision="FP16">
					<dim>1</dim>
					<dim>32</dim>
					<dim>10130</dim>
				</port>
				<port id="1" precision="FP16">
					<dim>16</dim>
					<dim>32</dim>
					<dim>1</dim>
				</port>
			</input>
			<output>
				<port id="2" precision="FP16">
					<dim>1</dim>
					<dim>16</dim>
					<dim>10130</dim>
				</port>
			</output>
		</layer>
		<layer id="294" name="Conv_105/Dims10717" type="Const" version="opset1">
			<data element_type="f16" offset="376306" shape="1, 16, 1" size="32"/>
			<output>
				<port id="0" precision="FP16">
					<dim>1</dim>
					<dim>16</dim>
					<dim>1</dim>
				</port>
			</output>
		</layer>
		<layer id="295" name="Conv_105" type="Add" version="opset1">
			<data auto_broadcast="numpy"/>
			<input>
				<port id="0" precision="FP16">
					<dim>1</dim>
					<dim>16</dim>
					<dim>10130</dim>
				</port>
				<port id="1" precision="FP16">
					<dim>1</dim>
					<dim>16</dim>
					<dim>1</dim>
				</port>
			</input>
			<output>
				<port id="2" names="430" precision="FP16">
					<dim>1</dim>
					<dim>16</dim>
					<dim>10130</dim>
				</port>
			</output>
		</layer>
		<layer id="296" name="Relu_106" type="ReLU" version="opset1">
			<input>
				<port id="0" precision="FP16">
					<dim>1</dim>
					<dim>16</dim>
					<dim>10130</dim>
				</port>
			</input>
			<output>
				<port id="1" names="431" precision="FP16">
					<dim>1</dim>
					<dim>16</dim>
					<dim>10130</dim>
				</port>
			</output>
		</layer>
		<layer id="297" name="Add_476" type="Add" version="opset1">
			<data auto_broadcast="numpy"/>
			<input>
				<port id="0" precision="FP16">
					<dim>1</dim>
					<dim>16</dim>
					<dim>10130</dim>
				</port>
				<port id="1" precision="FP16">
					<dim>1</dim>
					<dim>16</dim>
					<dim>10130</dim>
				</port>
			</input>
			<output>
				<port id="2" names="801" precision="FP16">
					<dim>1</dim>
					<dim>16</dim>
					<dim>10130</dim>
				</port>
			</output>
		</layer>
		<layer id="298" name="Add_107" type="Add" version="opset1">
			<data auto_broadcast="numpy"/>
			<input>
				<port id="0" precision="FP16">
					<dim>1</dim>
					<dim>16</dim>
					<dim>10130</dim>
				</port>
				<port id="1" precision="FP16">
					<dim>1</dim>
					<dim>16</dim>
					<dim>10130</dim>
				</port>
			</input>
			<output>
				<port id="2" names="432" precision="FP16">
					<dim>1</dim>
					<dim>16</dim>
					<dim>10130</dim>
				</port>
			</output>
		</layer>
		<layer id="299" name="blocks.9.pre_process.weight" type="Const" version="opset1">
			<data element_type="f16" offset="376338" shape="16, 16, 1" size="512"/>
			<output>
				<port id="0" names="blocks.9.pre_process.weight" precision="FP16">
					<dim>16</dim>
					<dim>16</dim>
					<dim>1</dim>
				</port>
			</output>
		</layer>
		<layer id="300" name="Conv_108/WithoutBiases" type="Convolution" version="opset1">
			<data auto_pad="explicit" dilations="1" pads_begin="0" pads_end="0" strides="1"/>
			<input>
				<port id="0" precision="FP16">
					<dim>1</dim>
					<dim>16</dim>
					<dim>10130</dim>
				</port>
				<port id="1" precision="FP16">
					<dim>16</dim>
					<dim>16</dim>
					<dim>1</dim>
				</port>
			</input>
			<output>
				<port id="2" precision="FP16">
					<dim>1</dim>
					<dim>16</dim>
					<dim>10130</dim>
				</port>
			</output>
		</layer>
		<layer id="301" name="Conv_108/Dims10999" type="Const" version="opset1">
			<data element_type="f16" offset="376850" shape="1, 16, 1" size="32"/>
			<output>
				<port id="0" precision="FP16">
					<dim>1</dim>
					<dim>16</dim>
					<dim>1</dim>
				</port>
			</output>
		</layer>
		<layer id="302" name="Conv_108" type="Add" version="opset1">
			<data auto_broadcast="numpy"/>
			<input>
				<port id="0" precision="FP16">
					<dim>1</dim>
					<dim>16</dim>
					<dim>10130</dim>
				</port>
				<port id="1" precision="FP16">
					<dim>1</dim>
					<dim>16</dim>
					<dim>1</dim>
				</port>
			</input>
			<output>
				<port id="2" names="433" precision="FP16">
					<dim>1</dim>
					<dim>16</dim>
					<dim>10130</dim>
				</port>
			</output>
		</layer>
		<layer id="303" name="Relu_109" type="ReLU" version="opset1">
			<input>
				<port id="0" precision="FP16">
					<dim>1</dim>
					<dim>16</dim>
					<dim>10130</dim>
				</port>
			</input>
			<output>
				<port id="1" names="434" precision="FP16">
					<dim>1</dim>
					<dim>16</dim>
					<dim>10130</dim>
				</port>
			</output>
		</layer>
		<layer id="304" name="blocks.9.filter.weight" type="Const" version="opset1">
			<data element_type="f16" offset="376882" shape="32, 16, 2" size="2048"/>
			<output>
				<port id="0" names="blocks.9.filter.weight" precision="FP16">
					<dim>32</dim>
					<dim>16</dim>
					<dim>2</dim>
				</port>
			</output>
		</layer>
		<layer id="305" name="Conv_110/WithoutBiases" type="Convolution" version="opset1">
			<data auto_pad="explicit" dilations="512" pads_begin="0" pads_end="0" strides="1"/>
			<input>
				<port id="0" precision="FP16">
					<dim>1</dim>
					<dim>16</dim>
					<dim>10130</dim>
				</port>
				<port id="1" precision="FP16">
					<dim>32</dim>
					<dim>16</dim>
					<dim>2</dim>
				</port>
			</input>
			<output>
				<port id="2" precision="FP16">
					<dim>1</dim>
					<dim>32</dim>
					<dim>9618</dim>
				</port>
			</output>
		</layer>
		<layer id="306" name="Conv_110/Dims10795" type="Const" version="opset1">
			<data element_type="f16" offset="378930" shape="1, 32, 1" size="64"/>
			<output>
				<port id="0" precision="FP16">
					<dim>1</dim>
					<dim>32</dim>
					<dim>1</dim>
				</port>
			</output>
		</layer>
		<layer id="307" name="Conv_110" type="Add" version="opset1">
			<data auto_broadcast="numpy"/>
			<input>
				<port id="0" precision="FP16">
					<dim>1</dim>
					<dim>32</dim>
					<dim>9618</dim>
				</port>
				<port id="1" precision="FP16">
					<dim>1</dim>
					<dim>32</dim>
					<dim>1</dim>
				</port>
			</input>
			<output>
				<port id="2" names="435" precision="FP16">
					<dim>1</dim>
					<dim>32</dim>
					<dim>9618</dim>
				</port>
			</output>
		</layer>
		<layer id="308" name="947" type="Const" version="opset1">
			<data element_type="i64" offset="326336" shape="3" size="24"/>
			<output>
				<port id="0" precision="I64">
					<dim>3</dim>
				</port>
			</output>
		</layer>
		<layer id="309" name="948" type="Const" version="opset1">
			<data element_type="i64" offset="378994" shape="3" size="24"/>
			<output>
				<port id="0" precision="I64">
					<dim>3</dim>
				</port>
			</output>
		</layer>
		<layer id="310" name="Pad_111/pad_value_convert_input_port_0/value" type="Const" version="opset1">
			<data element_type="f16" offset="326384" shape="" size="2"/>
			<output>
				<port id="0" precision="FP16"/>
			</output>
		</layer>
		<layer id="311" name="Pad_111/pad_value_convert" type="ConvertLike" version="opset1">
			<input>
				<port id="0" precision="FP16"/>
				<port id="1" precision="FP16">
					<dim>1</dim>
					<dim>32</dim>
					<dim>9618</dim>
				</port>
			</input>
			<output>
				<port id="2" precision="FP16"/>
			</output>
		</layer>
		<layer id="312" name="Pad_111" type="Pad" version="opset1">
			<data pad_mode="constant"/>
			<input>
				<port id="0" precision="FP16">
					<dim>1</dim>
					<dim>32</dim>
					<dim>9618</dim>
				</port>
				<port id="1" precision="I64">
					<dim>3</dim>
				</port>
				<port id="2" precision="I64">
					<dim>3</dim>
				</port>
				<port id="3" precision="FP16"/>
			</input>
			<output>
				<port id="4" names="436" precision="FP16">
					<dim>1</dim>
					<dim>32</dim>
					<dim>10130</dim>
				</port>
			</output>
		</layer>
		<layer id="313" name="Tanh_114" type="Tanh" version="opset1">
			<input>
				<port id="0" precision="FP16">
					<dim>1</dim>
					<dim>32</dim>
					<dim>10130</dim>
				</port>
			</input>
			<output>
				<port id="1" names="439" precision="FP16">
					<dim>1</dim>
					<dim>32</dim>
					<dim>10130</dim>
				</port>
			</output>
		</layer>
		<layer id="314" name="blocks.9.gating.weight" type="Const" version="opset1">
			<data element_type="f16" offset="379018" shape="32, 16, 2" size="2048"/>
			<output>
				<port id="0" names="blocks.9.gating.weight" precision="FP16">
					<dim>32</dim>
					<dim>16</dim>
					<dim>2</dim>
				</port>
			</output>
		</layer>
		<layer id="315" name="Conv_112/WithoutBiases" type="Convolution" version="opset1">
			<data auto_pad="explicit" dilations="512" pads_begin="0" pads_end="0" strides="1"/>
			<input>
				<port id="0" precision="FP16">
					<dim>1</dim>
					<dim>16</dim>
					<dim>10130</dim>
				</port>
				<port id="1" precision="FP16">
					<dim>32</dim>
					<dim>16</dim>
					<dim>2</dim>
				</port>
			</input>
			<output>
				<port id="2" precision="FP16">
					<dim>1</dim>
					<dim>32</dim>
					<dim>9618</dim>
				</port>
			</output>
		</layer>
		<layer id="316" name="Conv_112/Dims10603" type="Const" version="opset1">
			<data element_type="f16" offset="381066" shape="1, 32, 1" size="64"/>
			<output>
				<port id="0" precision="FP16">
					<dim>1</dim>
					<dim>32</dim>
					<dim>1</dim>
				</port>
			</output>
		</layer>
		<layer id="317" name="Conv_112" type="Add" version="opset1">
			<data auto_broadcast="numpy"/>
			<input>
				<port id="0" precision="FP16">
					<dim>1</dim>
					<dim>32</dim>
					<dim>9618</dim>
				</port>
				<port id="1" precision="FP16">
					<dim>1</dim>
					<dim>32</dim>
					<dim>1</dim>
				</port>
			</input>
			<output>
				<port id="2" names="437" precision="FP16">
					<dim>1</dim>
					<dim>32</dim>
					<dim>9618</dim>
				</port>
			</output>
		</layer>
		<layer id="318" name="952" type="Const" version="opset1">
			<data element_type="i64" offset="326336" shape="3" size="24"/>
			<output>
				<port id="0" precision="I64">
					<dim>3</dim>
				</port>
			</output>
		</layer>
		<layer id="319" name="953" type="Const" version="opset1">
			<data element_type="i64" offset="378994" shape="3" size="24"/>
			<output>
				<port id="0" precision="I64">
					<dim>3</dim>
				</port>
			</output>
		</layer>
		<layer id="320" name="Pad_113/pad_value_convert_input_port_0/value" type="Const" version="opset1">
			<data element_type="f16" offset="326384" shape="" size="2"/>
			<output>
				<port id="0" precision="FP16"/>
			</output>
		</layer>
		<layer id="321" name="Pad_113/pad_value_convert" type="ConvertLike" version="opset1">
			<input>
				<port id="0" precision="FP16"/>
				<port id="1" precision="FP16">
					<dim>1</dim>
					<dim>32</dim>
					<dim>9618</dim>
				</port>
			</input>
			<output>
				<port id="2" precision="FP16"/>
			</output>
		</layer>
		<layer id="322" name="Pad_113" type="Pad" version="opset1">
			<data pad_mode="constant"/>
			<input>
				<port id="0" precision="FP16">
					<dim>1</dim>
					<dim>32</dim>
					<dim>9618</dim>
				</port>
				<port id="1" precision="I64">
					<dim>3</dim>
				</port>
				<port id="2" precision="I64">
					<dim>3</dim>
				</port>
				<port id="3" precision="FP16"/>
			</input>
			<output>
				<port id="4" names="438" precision="FP16">
					<dim>1</dim>
					<dim>32</dim>
					<dim>10130</dim>
				</port>
			</output>
		</layer>
		<layer id="323" name="Sigmoid_115" type="Sigmoid" version="opset1">
			<input>
				<port id="0" precision="FP16">
					<dim>1</dim>
					<dim>32</dim>
					<dim>10130</dim>
				</port>
			</input>
			<output>
				<port id="1" names="440" precision="FP16">
					<dim>1</dim>
					<dim>32</dim>
					<dim>10130</dim>
				</port>
			</output>
		</layer>
		<layer id="324" name="Mul_116" type="Multiply" version="opset1">
			<data auto_broadcast="numpy"/>
			<input>
				<port id="0" precision="FP16">
					<dim>1</dim>
					<dim>32</dim>
					<dim>10130</dim>
				</port>
				<port id="1" precision="FP16">
					<dim>1</dim>
					<dim>32</dim>
					<dim>10130</dim>
				</port>
			</input>
			<output>
				<port id="2" names="441" precision="FP16">
					<dim>1</dim>
					<dim>32</dim>
					<dim>10130</dim>
				</port>
			</output>
		</layer>
		<layer id="325" name="blocks.9.post_process.weight" type="Const" version="opset1">
			<data element_type="f16" offset="381130" shape="16, 32, 1" size="1024"/>
			<output>
				<port id="0" names="blocks.9.post_process.weight" precision="FP16">
					<dim>16</dim>
					<dim>32</dim>
					<dim>1</dim>
				</port>
			</output>
		</layer>
		<layer id="326" name="Conv_117/WithoutBiases" type="Convolution" version="opset1">
			<data auto_pad="explicit" dilations="1" pads_begin="0" pads_end="0" strides="1"/>
			<input>
				<port id="0" precision="FP16">
					<dim>1</dim>
					<dim>32</dim>
					<dim>10130</dim>
				</port>
				<port id="1" precision="FP16">
					<dim>16</dim>
					<dim>32</dim>
					<dim>1</dim>
				</port>
			</input>
			<output>
				<port id="2" precision="FP16">
					<dim>1</dim>
					<dim>16</dim>
					<dim>10130</dim>
				</port>
			</output>
		</layer>
		<layer id="327" name="Conv_117/Dims11101" type="Const" version="opset1">
			<data element_type="f16" offset="382154" shape="1, 16, 1" size="32"/>
			<output>
				<port id="0" precision="FP16">
					<dim>1</dim>
					<dim>16</dim>
					<dim>1</dim>
				</port>
			</output>
		</layer>
		<layer id="328" name="Conv_117" type="Add" version="opset1">
			<data auto_broadcast="numpy"/>
			<input>
				<port id="0" precision="FP16">
					<dim>1</dim>
					<dim>16</dim>
					<dim>10130</dim>
				</port>
				<port id="1" precision="FP16">
					<dim>1</dim>
					<dim>16</dim>
					<dim>1</dim>
				</port>
			</input>
			<output>
				<port id="2" names="442" precision="FP16">
					<dim>1</dim>
					<dim>16</dim>
					<dim>10130</dim>
				</port>
			</output>
		</layer>
		<layer id="329" name="Relu_118" type="ReLU" version="opset1">
			<input>
				<port id="0" precision="FP16">
					<dim>1</dim>
					<dim>16</dim>
					<dim>10130</dim>
				</port>
			</input>
			<output>
				<port id="1" names="443" precision="FP16">
					<dim>1</dim>
					<dim>16</dim>
					<dim>10130</dim>
				</port>
			</output>
		</layer>
		<layer id="330" name="Add_477" type="Add" version="opset1">
			<data auto_broadcast="numpy"/>
			<input>
				<port id="0" precision="FP16">
					<dim>1</dim>
					<dim>16</dim>
					<dim>10130</dim>
				</port>
				<port id="1" precision="FP16">
					<dim>1</dim>
					<dim>16</dim>
					<dim>10130</dim>
				</port>
			</input>
			<output>
				<port id="2" names="802" precision="FP16">
					<dim>1</dim>
					<dim>16</dim>
					<dim>10130</dim>
				</port>
			</output>
		</layer>
		<layer id="331" name="Add_119" type="Add" version="opset1">
			<data auto_broadcast="numpy"/>
			<input>
				<port id="0" precision="FP16">
					<dim>1</dim>
					<dim>16</dim>
					<dim>10130</dim>
				</port>
				<port id="1" precision="FP16">
					<dim>1</dim>
					<dim>16</dim>
					<dim>10130</dim>
				</port>
			</input>
			<output>
				<port id="2" names="444" precision="FP16">
					<dim>1</dim>
					<dim>16</dim>
					<dim>10130</dim>
				</port>
			</output>
		</layer>
		<layer id="332" name="blocks.10.pre_process.weight" type="Const" version="opset1">
			<data element_type="f16" offset="382186" shape="16, 16, 1" size="512"/>
			<output>
				<port id="0" names="blocks.10.pre_process.weight" precision="FP16">
					<dim>16</dim>
					<dim>16</dim>
					<dim>1</dim>
				</port>
			</output>
		</layer>
		<layer id="333" name="Conv_120/WithoutBiases" type="Convolution" version="opset1">
			<data auto_pad="explicit" dilations="1" pads_begin="0" pads_end="0" strides="1"/>
			<input>
				<port id="0" precision="FP16">
					<dim>1</dim>
					<dim>16</dim>
					<dim>10130</dim>
				</port>
				<port id="1" precision="FP16">
					<dim>16</dim>
					<dim>16</dim>
					<dim>1</dim>
				</port>
			</input>
			<output>
				<port id="2" precision="FP16">
					<dim>1</dim>
					<dim>16</dim>
					<dim>10130</dim>
				</port>
			</output>
		</layer>
		<layer id="334" name="Conv_120/Dims10771" type="Const" version="opset1">
			<data element_type="f16" offset="382698" shape="1, 16, 1" size="32"/>
			<output>
				<port id="0" precision="FP16">
					<dim>1</dim>
					<dim>16</dim>
					<dim>1</dim>
				</port>
			</output>
		</layer>
		<layer id="335" name="Conv_120" type="Add" version="opset1">
			<data auto_broadcast="numpy"/>
			<input>
				<port id="0" precision="FP16">
					<dim>1</dim>
					<dim>16</dim>
					<dim>10130</dim>
				</port>
				<port id="1" precision="FP16">
					<dim>1</dim>
					<dim>16</dim>
					<dim>1</dim>
				</port>
			</input>
			<output>
				<port id="2" names="445" precision="FP16">
					<dim>1</dim>
					<dim>16</dim>
					<dim>10130</dim>
				</port>
			</output>
		</layer>
		<layer id="336" name="Relu_121" type="ReLU" version="opset1">
			<input>
				<port id="0" precision="FP16">
					<dim>1</dim>
					<dim>16</dim>
					<dim>10130</dim>
				</port>
			</input>
			<output>
				<port id="1" names="446" precision="FP16">
					<dim>1</dim>
					<dim>16</dim>
					<dim>10130</dim>
				</port>
			</output>
		</layer>
		<layer id="337" name="blocks.10.filter.weight" type="Const" version="opset1">
			<data element_type="f16" offset="382730" shape="32, 16, 2" size="2048"/>
			<output>
				<port id="0" names="blocks.10.filter.weight" precision="FP16">
					<dim>32</dim>
					<dim>16</dim>
					<dim>2</dim>
				</port>
			</output>
		</layer>
		<layer id="338" name="Conv_122/WithoutBiases" type="Convolution" version="opset1">
			<data auto_pad="explicit" dilations="1024" pads_begin="0" pads_end="0" strides="1"/>
			<input>
				<port id="0" precision="FP16">
					<dim>1</dim>
					<dim>16</dim>
					<dim>10130</dim>
				</port>
				<port id="1" precision="FP16">
					<dim>32</dim>
					<dim>16</dim>
					<dim>2</dim>
				</port>
			</input>
			<output>
				<port id="2" precision="FP16">
					<dim>1</dim>
					<dim>32</dim>
					<dim>9106</dim>
				</port>
			</output>
		</layer>
		<layer id="339" name="Conv_122/Dims10921" type="Const" version="opset1">
			<data element_type="f16" offset="384778" shape="1, 32, 1" size="64"/>
			<output>
				<port id="0" precision="FP16">
					<dim>1</dim>
					<dim>32</dim>
					<dim>1</dim>
				</port>
			</output>
		</layer>
		<layer id="340" name="Conv_122" type="Add" version="opset1">
			<data auto_broadcast="numpy"/>
			<input>
				<port id="0" precision="FP16">
					<dim>1</dim>
					<dim>32</dim>
					<dim>9106</dim>
				</port>
				<port id="1" precision="FP16">
					<dim>1</dim>
					<dim>32</dim>
					<dim>1</dim>
				</port>
			</input>
			<output>
				<port id="2" names="447" precision="FP16">
					<dim>1</dim>
					<dim>32</dim>
					<dim>9106</dim>
				</port>
			</output>
		</layer>
		<layer id="341" name="957" type="Const" version="opset1">
			<data element_type="i64" offset="326336" shape="3" size="24"/>
			<output>
				<port id="0" precision="I64">
					<dim>3</dim>
				</port>
			</output>
		</layer>
		<layer id="342" name="958" type="Const" version="opset1">
			<data element_type="i64" offset="384842" shape="3" size="24"/>
			<output>
				<port id="0" precision="I64">
					<dim>3</dim>
				</port>
			</output>
		</layer>
		<layer id="343" name="Pad_123/pad_value_convert_input_port_0/value" type="Const" version="opset1">
			<data element_type="f16" offset="326384" shape="" size="2"/>
			<output>
				<port id="0" precision="FP16"/>
			</output>
		</layer>
		<layer id="344" name="Pad_123/pad_value_convert" type="ConvertLike" version="opset1">
			<input>
				<port id="0" precision="FP16"/>
				<port id="1" precision="FP16">
					<dim>1</dim>
					<dim>32</dim>
					<dim>9106</dim>
				</port>
			</input>
			<output>
				<port id="2" precision="FP16"/>
			</output>
		</layer>
		<layer id="345" name="Pad_123" type="Pad" version="opset1">
			<data pad_mode="constant"/>
			<input>
				<port id="0" precision="FP16">
					<dim>1</dim>
					<dim>32</dim>
					<dim>9106</dim>
				</port>
				<port id="1" precision="I64">
					<dim>3</dim>
				</port>
				<port id="2" precision="I64">
					<dim>3</dim>
				</port>
				<port id="3" precision="FP16"/>
			</input>
			<output>
				<port id="4" names="448" precision="FP16">
					<dim>1</dim>
					<dim>32</dim>
					<dim>10130</dim>
				</port>
			</output>
		</layer>
		<layer id="346" name="Tanh_126" type="Tanh" version="opset1">
			<input>
				<port id="0" precision="FP16">
					<dim>1</dim>
					<dim>32</dim>
					<dim>10130</dim>
				</port>
			</input>
			<output>
				<port id="1" names="451" precision="FP16">
					<dim>1</dim>
					<dim>32</dim>
					<dim>10130</dim>
				</port>
			</output>
		</layer>
		<layer id="347" name="blocks.10.gating.weight" type="Const" version="opset1">
			<data element_type="f16" offset="384866" shape="32, 16, 2" size="2048"/>
			<output>
				<port id="0" names="blocks.10.gating.weight" precision="FP16">
					<dim>32</dim>
					<dim>16</dim>
					<dim>2</dim>
				</port>
			</output>
		</layer>
		<layer id="348" name="Conv_124/WithoutBiases" type="Convolution" version="opset1">
			<data auto_pad="explicit" dilations="1024" pads_begin="0" pads_end="0" strides="1"/>
			<input>
				<port id="0" precision="FP16">
					<dim>1</dim>
					<dim>16</dim>
					<dim>10130</dim>
				</port>
				<port id="1" precision="FP16">
					<dim>32</dim>
					<dim>16</dim>
					<dim>2</dim>
				</port>
			</input>
			<output>
				<port id="2" precision="FP16">
					<dim>1</dim>
					<dim>32</dim>
					<dim>9106</dim>
				</port>
			</output>
		</layer>
		<layer id="349" name="Conv_124/Dims10525" type="Const" version="opset1">
			<data element_type="f16" offset="386914" shape="1, 32, 1" size="64"/>
			<output>
				<port id="0" precision="FP16">
					<dim>1</dim>
					<dim>32</dim>
					<dim>1</dim>
				</port>
			</output>
		</layer>
		<layer id="350" name="Conv_124" type="Add" version="opset1">
			<data auto_broadcast="numpy"/>
			<input>
				<port id="0" precision="FP16">
					<dim>1</dim>
					<dim>32</dim>
					<dim>9106</dim>
				</port>
				<port id="1" precision="FP16">
					<dim>1</dim>
					<dim>32</dim>
					<dim>1</dim>
				</port>
			</input>
			<output>
				<port id="2" names="449" precision="FP16">
					<dim>1</dim>
					<dim>32</dim>
					<dim>9106</dim>
				</port>
			</output>
		</layer>
		<layer id="351" name="962" type="Const" version="opset1">
			<data element_type="i64" offset="326336" shape="3" size="24"/>
			<output>
				<port id="0" precision="I64">
					<dim>3</dim>
				</port>
			</output>
		</layer>
		<layer id="352" name="963" type="Const" version="opset1">
			<data element_type="i64" offset="384842" shape="3" size="24"/>
			<output>
				<port id="0" precision="I64">
					<dim>3</dim>
				</port>
			</output>
		</layer>
		<layer id="353" name="Pad_125/pad_value_convert_input_port_0/value" type="Const" version="opset1">
			<data element_type="f16" offset="326384" shape="" size="2"/>
			<output>
				<port id="0" precision="FP16"/>
			</output>
		</layer>
		<layer id="354" name="Pad_125/pad_value_convert" type="ConvertLike" version="opset1">
			<input>
				<port id="0" precision="FP16"/>
				<port id="1" precision="FP16">
					<dim>1</dim>
					<dim>32</dim>
					<dim>9106</dim>
				</port>
			</input>
			<output>
				<port id="2" precision="FP16"/>
			</output>
		</layer>
		<layer id="355" name="Pad_125" type="Pad" version="opset1">
			<data pad_mode="constant"/>
			<input>
				<port id="0" precision="FP16">
					<dim>1</dim>
					<dim>32</dim>
					<dim>9106</dim>
				</port>
				<port id="1" precision="I64">
					<dim>3</dim>
				</port>
				<port id="2" precision="I64">
					<dim>3</dim>
				</port>
				<port id="3" precision="FP16"/>
			</input>
			<output>
				<port id="4" names="450" precision="FP16">
					<dim>1</dim>
					<dim>32</dim>
					<dim>10130</dim>
				</port>
			</output>
		</layer>
		<layer id="356" name="Sigmoid_127" type="Sigmoid" version="opset1">
			<input>
				<port id="0" precision="FP16">
					<dim>1</dim>
					<dim>32</dim>
					<dim>10130</dim>
				</port>
			</input>
			<output>
				<port id="1" names="452" precision="FP16">
					<dim>1</dim>
					<dim>32</dim>
					<dim>10130</dim>
				</port>
			</output>
		</layer>
		<layer id="357" name="Mul_128" type="Multiply" version="opset1">
			<data auto_broadcast="numpy"/>
			<input>
				<port id="0" precision="FP16">
					<dim>1</dim>
					<dim>32</dim>
					<dim>10130</dim>
				</port>
				<port id="1" precision="FP16">
					<dim>1</dim>
					<dim>32</dim>
					<dim>10130</dim>
				</port>
			</input>
			<output>
				<port id="2" names="453" precision="FP16">
					<dim>1</dim>
					<dim>32</dim>
					<dim>10130</dim>
				</port>
			</output>
		</layer>
		<layer id="358" name="blocks.10.post_process.weight" type="Const" version="opset1">
			<data element_type="f16" offset="386978" shape="16, 32, 1" size="1024"/>
			<output>
				<port id="0" names="blocks.10.post_process.weight" precision="FP16">
					<dim>16</dim>
					<dim>32</dim>
					<dim>1</dim>
				</port>
			</output>
		</layer>
		<layer id="359" name="Conv_129/WithoutBiases" type="Convolution" version="opset1">
			<data auto_pad="explicit" dilations="1" pads_begin="0" pads_end="0" strides="1"/>
			<input>
				<port id="0" precision="FP16">
					<dim>1</dim>
					<dim>32</dim>
					<dim>10130</dim>
				</port>
				<port id="1" precision="FP16">
					<dim>16</dim>
					<dim>32</dim>
					<dim>1</dim>
				</port>
			</input>
			<output>
				<port id="2" precision="FP16">
					<dim>1</dim>
					<dim>16</dim>
					<dim>10130</dim>
				</port>
			</output>
		</layer>
		<layer id="360" name="Conv_129/Dims11017" type="Const" version="opset1">
			<data element_type="f16" offset="388002" shape="1, 16, 1" size="32"/>
			<output>
				<port id="0" precision="FP16">
					<dim>1</dim>
					<dim>16</dim>
					<dim>1</dim>
				</port>
			</output>
		</layer>
		<layer id="361" name="Conv_129" type="Add" version="opset1">
			<data auto_broadcast="numpy"/>
			<input>
				<port id="0" precision="FP16">
					<dim>1</dim>
					<dim>16</dim>
					<dim>10130</dim>
				</port>
				<port id="1" precision="FP16">
					<dim>1</dim>
					<dim>16</dim>
					<dim>1</dim>
				</port>
			</input>
			<output>
				<port id="2" names="454" precision="FP16">
					<dim>1</dim>
					<dim>16</dim>
					<dim>10130</dim>
				</port>
			</output>
		</layer>
		<layer id="362" name="Relu_130" type="ReLU" version="opset1">
			<input>
				<port id="0" precision="FP16">
					<dim>1</dim>
					<dim>16</dim>
					<dim>10130</dim>
				</port>
			</input>
			<output>
				<port id="1" names="455" precision="FP16">
					<dim>1</dim>
					<dim>16</dim>
					<dim>10130</dim>
				</port>
			</output>
		</layer>
		<layer id="363" name="Add_478" type="Add" version="opset1">
			<data auto_broadcast="numpy"/>
			<input>
				<port id="0" precision="FP16">
					<dim>1</dim>
					<dim>16</dim>
					<dim>10130</dim>
				</port>
				<port id="1" precision="FP16">
					<dim>1</dim>
					<dim>16</dim>
					<dim>10130</dim>
				</port>
			</input>
			<output>
				<port id="2" names="803" precision="FP16">
					<dim>1</dim>
					<dim>16</dim>
					<dim>10130</dim>
				</port>
			</output>
		</layer>
		<layer id="364" name="Add_131" type="Add" version="opset1">
			<data auto_broadcast="numpy"/>
			<input>
				<port id="0" precision="FP16">
					<dim>1</dim>
					<dim>16</dim>
					<dim>10130</dim>
				</port>
				<port id="1" precision="FP16">
					<dim>1</dim>
					<dim>16</dim>
					<dim>10130</dim>
				</port>
			</input>
			<output>
				<port id="2" names="456" precision="FP16">
					<dim>1</dim>
					<dim>16</dim>
					<dim>10130</dim>
				</port>
			</output>
		</layer>
		<layer id="365" name="blocks.11.pre_process.weight" type="Const" version="opset1">
			<data element_type="f16" offset="388034" shape="16, 16, 1" size="512"/>
			<output>
				<port id="0" names="blocks.11.pre_process.weight" precision="FP16">
					<dim>16</dim>
					<dim>16</dim>
					<dim>1</dim>
				</port>
			</output>
		</layer>
		<layer id="366" name="Conv_132/WithoutBiases" type="Convolution" version="opset1">
			<data auto_pad="explicit" dilations="1" pads_begin="0" pads_end="0" strides="1"/>
			<input>
				<port id="0" precision="FP16">
					<dim>1</dim>
					<dim>16</dim>
					<dim>10130</dim>
				</port>
				<port id="1" precision="FP16">
					<dim>16</dim>
					<dim>16</dim>
					<dim>1</dim>
				</port>
			</input>
			<output>
				<port id="2" precision="FP16">
					<dim>1</dim>
					<dim>16</dim>
					<dim>10130</dim>
				</port>
			</output>
		</layer>
		<layer id="367" name="Conv_132/Dims10597" type="Const" version="opset1">
			<data element_type="f16" offset="388546" shape="1, 16, 1" size="32"/>
			<output>
				<port id="0" precision="FP16">
					<dim>1</dim>
					<dim>16</dim>
					<dim>1</dim>
				</port>
			</output>
		</layer>
		<layer id="368" name="Conv_132" type="Add" version="opset1">
			<data auto_broadcast="numpy"/>
			<input>
				<port id="0" precision="FP16">
					<dim>1</dim>
					<dim>16</dim>
					<dim>10130</dim>
				</port>
				<port id="1" precision="FP16">
					<dim>1</dim>
					<dim>16</dim>
					<dim>1</dim>
				</port>
			</input>
			<output>
				<port id="2" names="457" precision="FP16">
					<dim>1</dim>
					<dim>16</dim>
					<dim>10130</dim>
				</port>
			</output>
		</layer>
		<layer id="369" name="Relu_133" type="ReLU" version="opset1">
			<input>
				<port id="0" precision="FP16">
					<dim>1</dim>
					<dim>16</dim>
					<dim>10130</dim>
				</port>
			</input>
			<output>
				<port id="1" names="458" precision="FP16">
					<dim>1</dim>
					<dim>16</dim>
					<dim>10130</dim>
				</port>
			</output>
		</layer>
		<layer id="370" name="blocks.11.filter.weight" type="Const" version="opset1">
			<data element_type="f16" offset="388578" shape="32, 16, 2" size="2048"/>
			<output>
				<port id="0" names="blocks.11.filter.weight" precision="FP16">
					<dim>32</dim>
					<dim>16</dim>
					<dim>2</dim>
				</port>
			</output>
		</layer>
		<layer id="371" name="Conv_134/WithoutBiases" type="Convolution" version="opset1">
			<data auto_pad="explicit" dilations="2048" pads_begin="0" pads_end="0" strides="1"/>
			<input>
				<port id="0" precision="FP16">
					<dim>1</dim>
					<dim>16</dim>
					<dim>10130</dim>
				</port>
				<port id="1" precision="FP16">
					<dim>32</dim>
					<dim>16</dim>
					<dim>2</dim>
				</port>
			</input>
			<output>
				<port id="2" precision="FP16">
					<dim>1</dim>
					<dim>32</dim>
					<dim>8082</dim>
				</port>
			</output>
		</layer>
		<layer id="372" name="Conv_134/Dims10663" type="Const" version="opset1">
			<data element_type="f16" offset="390626" shape="1, 32, 1" size="64"/>
			<output>
				<port id="0" precision="FP16">
					<dim>1</dim>
					<dim>32</dim>
					<dim>1</dim>
				</port>
			</output>
		</layer>
		<layer id="373" name="Conv_134" type="Add" version="opset1">
			<data auto_broadcast="numpy"/>
			<input>
				<port id="0" precision="FP16">
					<dim>1</dim>
					<dim>32</dim>
					<dim>8082</dim>
				</port>
				<port id="1" precision="FP16">
					<dim>1</dim>
					<dim>32</dim>
					<dim>1</dim>
				</port>
			</input>
			<output>
				<port id="2" names="459" precision="FP16">
					<dim>1</dim>
					<dim>32</dim>
					<dim>8082</dim>
				</port>
			</output>
		</layer>
		<layer id="374" name="967" type="Const" version="opset1">
			<data element_type="i64" offset="326336" shape="3" size="24"/>
			<output>
				<port id="0" precision="I64">
					<dim>3</dim>
				</port>
			</output>
		</layer>
		<layer id="375" name="968" type="Const" version="opset1">
			<data element_type="i64" offset="390690" shape="3" size="24"/>
			<output>
				<port id="0" precision="I64">
					<dim>3</dim>
				</port>
			</output>
		</layer>
		<layer id="376" name="Pad_135/pad_value_convert_input_port_0/value" type="Const" version="opset1">
			<data element_type="f16" offset="326384" shape="" size="2"/>
			<output>
				<port id="0" precision="FP16"/>
			</output>
		</layer>
		<layer id="377" name="Pad_135/pad_value_convert" type="ConvertLike" version="opset1">
			<input>
				<port id="0" precision="FP16"/>
				<port id="1" precision="FP16">
					<dim>1</dim>
					<dim>32</dim>
					<dim>8082</dim>
				</port>
			</input>
			<output>
				<port id="2" precision="FP16"/>
			</output>
		</layer>
		<layer id="378" name="Pad_135" type="Pad" version="opset1">
			<data pad_mode="constant"/>
			<input>
				<port id="0" precision="FP16">
					<dim>1</dim>
					<dim>32</dim>
					<dim>8082</dim>
				</port>
				<port id="1" precision="I64">
					<dim>3</dim>
				</port>
				<port id="2" precision="I64">
					<dim>3</dim>
				</port>
				<port id="3" precision="FP16"/>
			</input>
			<output>
				<port id="4" names="460" precision="FP16">
					<dim>1</dim>
					<dim>32</dim>
					<dim>10130</dim>
				</port>
			</output>
		</layer>
		<layer id="379" name="Tanh_138" type="Tanh" version="opset1">
			<input>
				<port id="0" precision="FP16">
					<dim>1</dim>
					<dim>32</dim>
					<dim>10130</dim>
				</port>
			</input>
			<output>
				<port id="1" names="463" precision="FP16">
					<dim>1</dim>
					<dim>32</dim>
					<dim>10130</dim>
				</port>
			</output>
		</layer>
		<layer id="380" name="blocks.11.gating.weight" type="Const" version="opset1">
			<data element_type="f16" offset="390714" shape="32, 16, 2" size="2048"/>
			<output>
				<port id="0" names="blocks.11.gating.weight" precision="FP16">
					<dim>32</dim>
					<dim>16</dim>
					<dim>2</dim>
				</port>
			</output>
		</layer>
		<layer id="381" name="Conv_136/WithoutBiases" type="Convolution" version="opset1">
			<data auto_pad="explicit" dilations="2048" pads_begin="0" pads_end="0" strides="1"/>
			<input>
				<port id="0" precision="FP16">
					<dim>1</dim>
					<dim>16</dim>
					<dim>10130</dim>
				</port>
				<port id="1" precision="FP16">
					<dim>32</dim>
					<dim>16</dim>
					<dim>2</dim>
				</port>
			</input>
			<output>
				<port id="2" precision="FP16">
					<dim>1</dim>
					<dim>32</dim>
					<dim>8082</dim>
				</port>
			</output>
		</layer>
		<layer id="382" name="Conv_136/Dims10465" type="Const" version="opset1">
			<data element_type="f16" offset="392762" shape="1, 32, 1" size="64"/>
			<output>
				<port id="0" precision="FP16">
					<dim>1</dim>
					<dim>32</dim>
					<dim>1</dim>
				</port>
			</output>
		</layer>
		<layer id="383" name="Conv_136" type="Add" version="opset1">
			<data auto_broadcast="numpy"/>
			<input>
				<port id="0" precision="FP16">
					<dim>1</dim>
					<dim>32</dim>
					<dim>8082</dim>
				</port>
				<port id="1" precision="FP16">
					<dim>1</dim>
					<dim>32</dim>
					<dim>1</dim>
				</port>
			</input>
			<output>
				<port id="2" names="461" precision="FP16">
					<dim>1</dim>
					<dim>32</dim>
					<dim>8082</dim>
				</port>
			</output>
		</layer>
		<layer id="384" name="972" type="Const" version="opset1">
			<data element_type="i64" offset="326336" shape="3" size="24"/>
			<output>
				<port id="0" precision="I64">
					<dim>3</dim>
				</port>
			</output>
		</layer>
		<layer id="385" name="973" type="Const" version="opset1">
			<data element_type="i64" offset="390690" shape="3" size="24"/>
			<output>
				<port id="0" precision="I64">
					<dim>3</dim>
				</port>
			</output>
		</layer>
		<layer id="386" name="Pad_137/pad_value_convert_input_port_0/value" type="Const" version="opset1">
			<data element_type="f16" offset="326384" shape="" size="2"/>
			<output>
				<port id="0" precision="FP16"/>
			</output>
		</layer>
		<layer id="387" name="Pad_137/pad_value_convert" type="ConvertLike" version="opset1">
			<input>
				<port id="0" precision="FP16"/>
				<port id="1" precision="FP16">
					<dim>1</dim>
					<dim>32</dim>
					<dim>8082</dim>
				</port>
			</input>
			<output>
				<port id="2" precision="FP16"/>
			</output>
		</layer>
		<layer id="388" name="Pad_137" type="Pad" version="opset1">
			<data pad_mode="constant"/>
			<input>
				<port id="0" precision="FP16">
					<dim>1</dim>
					<dim>32</dim>
					<dim>8082</dim>
				</port>
				<port id="1" precision="I64">
					<dim>3</dim>
				</port>
				<port id="2" precision="I64">
					<dim>3</dim>
				</port>
				<port id="3" precision="FP16"/>
			</input>
			<output>
				<port id="4" names="462" precision="FP16">
					<dim>1</dim>
					<dim>32</dim>
					<dim>10130</dim>
				</port>
			</output>
		</layer>
		<layer id="389" name="Sigmoid_139" type="Sigmoid" version="opset1">
			<input>
				<port id="0" precision="FP16">
					<dim>1</dim>
					<dim>32</dim>
					<dim>10130</dim>
				</port>
			</input>
			<output>
				<port id="1" names="464" precision="FP16">
					<dim>1</dim>
					<dim>32</dim>
					<dim>10130</dim>
				</port>
			</output>
		</layer>
		<layer id="390" name="Mul_140" type="Multiply" version="opset1">
			<data auto_broadcast="numpy"/>
			<input>
				<port id="0" precision="FP16">
					<dim>1</dim>
					<dim>32</dim>
					<dim>10130</dim>
				</port>
				<port id="1" precision="FP16">
					<dim>1</dim>
					<dim>32</dim>
					<dim>10130</dim>
				</port>
			</input>
			<output>
				<port id="2" names="465" precision="FP16">
					<dim>1</dim>
					<dim>32</dim>
					<dim>10130</dim>
				</port>
			</output>
		</layer>
		<layer id="391" name="blocks.11.post_process.weight" type="Const" version="opset1">
			<data element_type="f16" offset="392826" shape="16, 32, 1" size="1024"/>
			<output>
				<port id="0" names="blocks.11.post_process.weight" precision="FP16">
					<dim>16</dim>
					<dim>32</dim>
					<dim>1</dim>
				</port>
			</output>
		</layer>
		<layer id="392" name="Conv_141/WithoutBiases" type="Convolution" version="opset1">
			<data auto_pad="explicit" dilations="1" pads_begin="0" pads_end="0" strides="1"/>
			<input>
				<port id="0" precision="FP16">
					<dim>1</dim>
					<dim>32</dim>
					<dim>10130</dim>
				</port>
				<port id="1" precision="FP16">
					<dim>16</dim>
					<dim>32</dim>
					<dim>1</dim>
				</port>
			</input>
			<output>
				<port id="2" precision="FP16">
					<dim>1</dim>
					<dim>16</dim>
					<dim>10130</dim>
				</port>
			</output>
		</layer>
		<layer id="393" name="Conv_141/Dims10621" type="Const" version="opset1">
			<data element_type="f16" offset="393850" shape="1, 16, 1" size="32"/>
			<output>
				<port id="0" precision="FP16">
					<dim>1</dim>
					<dim>16</dim>
					<dim>1</dim>
				</port>
			</output>
		</layer>
		<layer id="394" name="Conv_141" type="Add" version="opset1">
			<data auto_broadcast="numpy"/>
			<input>
				<port id="0" precision="FP16">
					<dim>1</dim>
					<dim>16</dim>
					<dim>10130</dim>
				</port>
				<port id="1" precision="FP16">
					<dim>1</dim>
					<dim>16</dim>
					<dim>1</dim>
				</port>
			</input>
			<output>
				<port id="2" names="466" precision="FP16">
					<dim>1</dim>
					<dim>16</dim>
					<dim>10130</dim>
				</port>
			</output>
		</layer>
		<layer id="395" name="Relu_142" type="ReLU" version="opset1">
			<input>
				<port id="0" precision="FP16">
					<dim>1</dim>
					<dim>16</dim>
					<dim>10130</dim>
				</port>
			</input>
			<output>
				<port id="1" names="467" precision="FP16">
					<dim>1</dim>
					<dim>16</dim>
					<dim>10130</dim>
				</port>
			</output>
		</layer>
		<layer id="396" name="Add_479" type="Add" version="opset1">
			<data auto_broadcast="numpy"/>
			<input>
				<port id="0" precision="FP16">
					<dim>1</dim>
					<dim>16</dim>
					<dim>10130</dim>
				</port>
				<port id="1" precision="FP16">
					<dim>1</dim>
					<dim>16</dim>
…
		<edge from-layer="712" from-port="0" to-layer="713" to-port="1"/>
		<edge from-layer="713" from-port="2" to-layer="718" to-port="0"/>
		<edge from-layer="713" from-port="2" to-layer="717" to-port="1"/>
		<edge from-layer="714" from-port="0" to-layer="718" to-port="1"/>
		<edge from-layer="715" from-port="0" to-layer="718" to-port="2"/>
		<edge from-layer="716" from-port="0" to-layer="717" to-port="0"/>
		<edge from-layer="717" from-port="2" to-layer="718" to-port="3"/>
		<edge from-layer="718" from-port="4" to-layer="719" to-port="0"/>
		<edge from-layer="719" from-port="1" to-layer="720" to-port="1"/>
		<edge from-layer="720" from-port="2" to-layer="722" to-port="0"/>
		<edge from-layer="721" from-port="0" to-layer="722" to-port="1"/>
		<edge from-layer="722" from-port="2" to-layer="724" to-port="0"/>
		<edge from-layer="723" from-port="0" to-layer="724" to-port="1"/>
		<edge from-layer="724" from-port="2" to-layer="725" to-port="0"/>
		<edge from-layer="725" from-port="1" to-layer="726" to-port="1"/>
		<edge from-layer="725" from-port="1" to-layer="727" to-port="1"/>
		<edge from-layer="726" from-port="2" to-layer="759" to-port="0"/>
		<edge from-layer="727" from-port="2" to-layer="729" to-port="0"/>
		<edge from-layer="728" from-port="0" to-layer="729" to-port="1"/>
		<edge from-layer="729" from-port="2" to-layer="731" to-port="0"/>
		<edge from-layer="730" from-port="0" to-layer="731" to-port="1"/>
		<edge from-layer="731" from-port="2" to-layer="732" to-port="0"/>
		<edge from-layer="732" from-port="1" to-layer="734" to-port="0"/>
		<edge from-layer="732" from-port="1" to-layer="744" to-port="0"/>
		<edge from-layer="732" from-port="1" to-layer="760" to-port="0"/>
		<edge from-layer="733" from-port="0" to-layer="734" to-port="1"/>
		<edge from-layer="734" from-port="2" to-layer="736" to-port="0"/>
		<edge from-layer="735" from-port="0" to-layer="736" to-port="1"/>
		<edge from-layer="736" from-port="2" to-layer="740" to-port="1"/>
		<edge from-layer="736" from-port="2" to-layer="741" to-port="0"/>
		<edge from-layer="737" from-port="0" to-layer="741" to-port="1"/>
		<edge from-layer="738" from-port="0" to-layer="741" to-port="2"/>
		<edge from-layer="739" from-port="0" to-layer="740" to-port="0"/>
		<edge from-layer="740" from-port="2" to-layer="741" to-port="3"/>
		<edge from-layer="741" from-port="4" to-layer="742" to-port="0"/>
		<edge from-layer="742" from-port="1" to-layer="753" to-port="0"/>
		<edge from-layer="743" from-port="0" to-layer="744" to-port="1"/>
		<edge from-layer="744" from-port="2" to-layer="746" to-port="0"/>
		<edge from-layer="745" from-port="0" to-layer="746" to-port="1"/>
		<edge from-layer="746" from-port="2" to-layer="750" to-port="1"/>
		<edge from-layer="746" from-port="2" to-layer="751" to-port="0"/>
		<edge from-layer="747" from-port="0" to-layer="751" to-port="1"/>
		<edge from-layer="748" from-port="0" to-layer="751" to-port="2"/>
		<edge from-layer="749" from-port="0" to-layer="750" to-port="0"/>
		<edge from-layer="750" from-port="2" to-layer="751" to-port="3"/>
		<edge from-layer="751" from-port="4" to-layer="752" to-port="0"/>
		<edge from-layer="752" from-port="1" to-layer="753" to-port="1"/>
		<edge from-layer="753" from-port="2" to-layer="755" to-port="0"/>
		<edge from-layer="754" from-port="0" to-layer="755" to-port="1"/>
		<edge from-layer="755" from-port="2" to-layer="757" to-port="0"/>
		<edge from-layer="756" from-port="0" to-layer="757" to-port="1"/>
		<edge from-layer="757" from-port="2" to-layer="758" to-port="0"/>
		<edge from-layer="758" from-port="1" to-layer="759" to-port="1"/>
		<edge from-layer="758" from-port="1" to-layer="760" to-port="1"/>
		<edge from-layer="759" from-port="2" to-layer="792" to-port="0"/>
		<edge from-layer="760" from-port="2" to-layer="762" to-port="0"/>
		<edge from-layer="761" from-port="0" to-layer="762" to-port="1"/>
		<edge from-layer="762" from-port="2" to-layer="764" to-port="0"/>
		<edge from-layer="763" from-port="0" to-layer="764" to-port="1"/>
		<edge from-layer="764" from-port="2" to-layer="765" to-port="0"/>
		<edge from-layer="765" from-port="1" to-layer="767" to-port="0"/>
		<edge from-layer="765" from-port="1" to-layer="777" to-port="0"/>
		<edge from-layer="765" from-port="1" to-layer="793" to-port="0"/>
		<edge from-layer="766" from-port="0" to-layer="767" to-port="1"/>
		<edge from-layer="767" from-port="2" to-layer="769" to-port="0"/>
		<edge from-layer="768" from-port="0" to-layer="769" to-port="1"/>
		<edge from-layer="769" from-port="2" to-layer="773" to-port="1"/>
		<edge from-layer="769" from-port="2" to-layer="774" to-port="0"/>
		<edge from-layer="770" from-port="0" to-layer="774" to-port="1"/>
		<edge from-layer="771" from-port="0" to-layer="774" to-port="2"/>
		<edge from-layer="772" from-port="0" to-layer="773" to-port="0"/>
		<edge from-layer="773" from-port="2" to-layer="774" to-port="3"/>
		<edge from-layer="774" from-port="4" to-layer="775" to-port="0"/>
		<edge from-layer="775" from-port="1" to-layer="786" to-port="0"/>
		<edge from-layer="776" from-port="0" to-layer="777" to-port="1"/>
		<edge from-layer="777" from-port="2" to-layer="779" to-port="0"/>
		<edge from-layer="778" from-port="0" to-layer="779" to-port="1"/>
		<edge from-layer="779" from-port="2" to-layer="783" to-port="1"/>
		<edge from-layer="779" from-port="2" to-layer="784" to-port="0"/>
		<edge from-layer="780" from-port="0" to-layer="784" to-port="1"/>
		<edge from-layer="781" from-port="0" to-layer="784" to-port="2"/>
		<edge from-layer="782" from-port="0" to-layer="783" to-port="0"/>
		<edge from-layer="783" from-port="2" to-layer="784" to-port="3"/>
		<edge from-layer="784" from-port="4" to-layer="785" to-port="0"/>
		<edge from-layer="785" from-port="1" to-layer="786" to-port="1"/>
		<edge from-layer="786" from-port="2" to-layer="788" to-port="0"/>
		<edge from-layer="787" from-port="0" to-layer="788" to-port="1"/>
		<edge from-layer="788" from-port="2" to-layer="790" to-port="0"/>
		<edge from-layer="789" from-port="0" to-layer="790" to-port="1"/>
		<edge from-layer="790" from-port="2" to-layer="791" to-port="0"/>
		<edge from-layer="791" from-port="1" to-layer="792" to-port="1"/>
		<edge from-layer="791" from-port="1" to-layer="793" to-port="1"/>
		<edge from-layer="792" from-port="2" to-layer="825" to-port="0"/>
		<edge from-layer="793" from-port="2" to-layer="795" to-port="0"/>
		<edge from-layer="794" from-port="0" to-layer="795" to-port="1"/>
		<edge from-layer="795" from-port="2" to-layer="797" to-port="0"/>
		<edge from-layer="796" from-port="0" to-layer="797" to-port="1"/>
		<edge from-layer="797" from-port="2" to-layer="798" to-port="0"/>
		<edge from-layer="798" from-port="1" to-layer="800" to-port="0"/>
		<edge from-layer="798" from-port="1" to-layer="826" to-port="0"/>
		<edge from-layer="798" from-port="1" to-layer="810" to-port="0"/>
		<edge from-layer="799" from-port="0" to-layer="800" to-port="1"/>
		<edge from-layer="800" from-port="2" to-layer="802" to-port="0"/>
		<edge from-layer="801" from-port="0" to-layer="802" to-port="1"/>
		<edge from-layer="802" from-port="2" to-layer="807" to-port="0"/>
		<edge from-layer="802" from-port="2" to-layer="806" to-port="1"/>
		<edge from-layer="803" from-port="0" to-layer="807" to-port="1"/>
		<edge from-layer="804" from-port="0" to-layer="807" to-port="2"/>
		<edge from-layer="805" from-port="0" to-layer="806" to-port="0"/>
		<edge from-layer="806" from-port="2" to-layer="807" to-port="3"/>
		<edge from-layer="807" from-port="4" to-layer="808" to-port="0"/>
		<edge from-layer="808" from-port="1" to-layer="819" to-port="0"/>
		<edge from-layer="809" from-port="0" to-layer="810" to-port="1"/>
		<edge from-layer="810" from-port="2" to-layer="812" to-port="0"/>
		<edge from-layer="811" from-port="0" to-layer="812" to-port="1"/>
		<edge from-layer="812" from-port="2" to-layer="816" to-port="1"/>
		<edge from-layer="812" from-port="2" to-layer="817" to-port="0"/>
		<edge from-layer="813" from-port="0" to-layer="817" to-port="1"/>
		<edge from-layer="814" from-port="0" to-layer="817" to-port="2"/>
		<edge from-layer="815" from-port="0" to-layer="816" to-port="0"/>
		<edge from-layer="816" from-port="2" to-layer="817" to-port="3"/>
		<edge from-layer="817" from-port="4" to-layer="818" to-port="0"/>
		<edge from-layer="818" from-port="1" to-layer="819" to-port="1"/>
		<edge from-layer="819" from-port="2" to-layer="821" to-port="0"/>
		<edge from-layer="820" from-port="0" to-layer="821" to-port="1"/>
		<edge from-layer="821" from-port="2" to-layer="823" to-port="0"/>
		<edge from-layer="822" from-port="0" to-layer="823" to-port="1"/>
		<edge from-layer="823" from-port="2" to-layer="824" to-port="0"/>
		<edge from-layer="824" from-port="1" to-layer="825" to-port="1"/>
		<edge from-layer="824" from-port="1" to-layer="826" to-port="1"/>
		<edge from-layer="825" from-port="2" to-layer="858" to-port="0"/>
		<edge from-layer="826" from-port="2" to-layer="828" to-port="0"/>
		<edge from-layer="827" from-port="0" to-layer="828" to-port="1"/>
		<edge from-layer="828" from-port="2" to-layer="830" to-port="0"/>
		<edge from-layer="829" from-port="0" to-layer="830" to-port="1"/>
		<edge from-layer="830" from-port="2" to-layer="831" to-port="0"/>
		<edge from-layer="831" from-port="1" to-layer="833" to-port="0"/>
		<edge from-layer="831" from-port="1" to-layer="859" to-port="0"/>
		<edge from-layer="831" from-port="1" to-layer="843" to-port="0"/>
		<edge from-layer="832" from-port="0" to-layer="833" to-port="1"/>
		<edge from-layer="833" from-port="2" to-layer="835" to-port="0"/>
		<edge from-layer="834" from-port="0" to-layer="835" to-port="1"/>
		<edge from-layer="835" from-port="2" to-layer="840" to-port="0"/>
		<edge from-layer="835" from-port="2" to-layer="839" to-port="1"/>
		<edge from-layer="836" from-port="0" to-layer="840" to-port="1"/>
		<edge from-layer="837" from-port="0" to-layer="840" to-port="2"/>
		<edge from-layer="838" from-port="0" to-layer="839" to-port="0"/>
		<edge from-layer="839" from-port="2" to-layer="840" to-port="3"/>
		<edge from-layer="840" from-port="4" to-layer="841" to-port="0"/>
		<edge from-layer="841" from-port="1" to-layer="852" to-port="0"/>
		<edge from-layer="842" from-port="0" to-layer="843" to-port="1"/>
		<edge from-layer="843" from-port="2" to-layer="845" to-port="0"/>
		<edge from-layer="844" from-port="0" to-layer="845" to-port="1"/>
		<edge from-layer="845" from-port="2" to-layer="850" to-port="0"/>
		<edge from-layer="845" from-port="2" to-layer="849" to-port="1"/>
		<edge from-layer="846" from-port="0" to-layer="850" to-port="1"/>
		<edge from-layer="847" from-port="0" to-layer="850" to-port="2"/>
		<edge from-layer="848" from-port="0" to-layer="849" to-port="0"/>
		<edge from-layer="849" from-port="2" to-layer="850" to-port="3"/>
		<edge from-layer="850" from-port="4" to-layer="851" to-port="0"/>
		<edge from-layer="851" from-port="1" to-layer="852" to-port="1"/>
		<edge from-layer="852" from-port="2" to-layer="854" to-port="0"/>
		<edge from-layer="853" from-port="0" to-layer="854" to-port="1"/>
		<edge from-layer="854" from-port="2" to-layer="856" to-port="0"/>
		<edge from-layer="855" from-port="0" to-layer="856" to-port="1"/>
		<edge from-layer="856" from-port="2" to-layer="857" to-port="0"/>
		<edge from-layer="857" from-port="1" to-layer="859" to-port="1"/>
		<edge from-layer="857" from-port="1" to-layer="858" to-port="1"/>
		<edge from-layer="858" from-port="2" to-layer="891" to-port="0"/>
		<edge from-layer="859" from-port="2" to-layer="861" to-port="0"/>
		<edge from-layer="860" from-port="0" to-layer="861" to-port="1"/>
		<edge from-layer="861" from-port="2" to-layer="863" to-port="0"/>
		<edge from-layer="862" from-port="0" to-layer="863" to-port="1"/>
		<edge from-layer="863" from-port="2" to-layer="864" to-port="0"/>
		<edge from-layer="864" from-port="1" to-layer="892" to-port="0"/>
		<edge from-layer="864" from-port="1" to-layer="876" to-port="0"/>
		<edge from-layer="864" from-port="1" to-layer="866" to-port="0"/>
		<edge from-layer="865" from-port="0" to-layer="866" to-port="1"/>
		<edge from-layer="866" from-port="2" to-layer="868" to-port="0"/>
		<edge from-layer="867" from-port="0" to-layer="868" to-port="1"/>
		<edge from-layer="868" from-port="2" to-layer="872" to-port="1"/>
		<edge from-layer="868" from-port="2" to-layer="873" to-port="0"/>
		<edge from-layer="869" from-port="0" to-layer="873" to-port="1"/>
		<edge from-layer="870" from-port="0" to-layer="873" to-port="2"/>
		<edge from-layer="871" from-port="0" to-layer="872" to-port="0"/>
		<edge from-layer="872" from-port="2" to-layer="873" to-port="3"/>
		<edge from-layer="873" from-port="4" to-layer="874" to-port="0"/>
		<edge from-layer="874" from-port="1" to-layer="885" to-port="0"/>
		<edge from-layer="875" from-port="0" to-layer="876" to-port="1"/>
		<edge from-layer="876" from-port="2" to-layer="878" to-port="0"/>
		<edge from-layer="877" from-port="0" to-layer="878" to-port="1"/>
		<edge from-layer="878" from-port="2" to-layer="883" to-port="0"/>
		<edge from-layer="878" from-port="2" to-layer="882" to-port="1"/>
		<edge from-layer="879" from-port="0" to-layer="883" to-port="1"/>
		<edge from-layer="880" from-port="0" to-layer="883" to-port="2"/>
		<edge from-layer="881" from-port="0" to-layer="882" to-port="0"/>
		<edge from-layer="882" from-port="2" to-layer="883" to-port="3"/>
		<edge from-layer="883" from-port="4" to-layer="884" to-port="0"/>
		<edge from-layer="884" from-port="1" to-layer="885" to-port="1"/>
		<edge from-layer="885" from-port="2" to-layer="887" to-port="0"/>
		<edge from-layer="886" from-port="0" to-layer="887" to-port="1"/>
		<edge from-layer="887" from-port="2" to-layer="889" to-port="0"/>
		<edge from-layer="888" from-port="0" to-layer="889" to-port="1"/>
		<edge from-layer="889" from-port="2" to-layer="890" to-port="0"/>
		<edge from-layer="890" from-port="1" to-layer="892" to-port="1"/>
		<edge from-layer="890" from-port="1" to-layer="891" to-port="1"/>
		<edge from-layer="891" from-port="2" to-layer="924" to-port="0"/>
		<edge from-layer="892" from-port="2" to-layer="894" to-port="0"/>
		<edge from-layer="893" from-port="0" to-layer="894" to-port="1"/>
		<edge from-layer="894" from-port="2" to-layer="896" to-port="0"/>
		<edge from-layer="895" from-port="0" to-layer="896" to-port="1"/>
		<edge from-layer="896" from-port="2" to-layer="897" to-port="0"/>
		<edge from-layer="897" from-port="1" to-layer="925" to-port="0"/>
		<edge from-layer="897" from-port="1" to-layer="909" to-port="0"/>
		<edge from-layer="897" from-port="1" to-layer="899" to-port="0"/>
		<edge from-layer="898" from-port="0" to-layer="899" to-port="1"/>
		<edge from-layer="899" from-port="2" to-layer="901" to-port="0"/>
		<edge from-layer="900" from-port="0" to-layer="901" to-port="1"/>
		<edge from-layer="901" from-port="2" to-layer="905" to-port="1"/>
		<edge from-layer="901" from-port="2" to-layer="906" to-port="0"/>
		<edge from-layer="902" from-port="0" to-layer="906" to-port="1"/>
		<edge from-layer="903" from-port="0" to-layer="906" to-port="2"/>
		<edge from-layer="904" from-port="0" to-layer="905" to-port="0"/>
		<edge from-layer="905" from-port="2" to-layer="906" to-port="3"/>
		<edge from-layer="906" from-port="4" to-layer="907" to-port="0"/>
		<edge from-layer="907" from-port="1" to-layer="918" to-port="0"/>
		<edge from-layer="908" from-port="0" to-layer="909" to-port="1"/>
		<edge from-layer="909" from-port="2" to-layer="911" to-port="0"/>
		<edge from-layer="910" from-port="0" to-layer="911" to-port="1"/>
		<edge from-layer="911" from-port="2" to-layer="916" to-port="0"/>
		<edge from-layer="911" from-port="2" to-layer="915" to-port="1"/>
		<edge from-layer="912" from-port="0" to-layer="916" to-port="1"/>
		<edge from-layer="913" from-port="0" to-layer="916" to-port="2"/>
		<edge from-layer="914" from-port="0" to-layer="915" to-port="0"/>
		<edge from-layer="915" from-port="2" to-layer="916" to-port="3"/>
		<edge from-layer="916" from-port="4" to-layer="917" to-port="0"/>
		<edge from-layer="917" from-port="1" to-layer="918" to-port="1"/>
		<edge from-layer="918" from-port="2" to-layer="920" to-port="0"/>
		<edge from-layer="919" from-port="0" to-layer="920" to-port="1"/>
		<edge from-layer="920" from-port="2" to-layer="922" to-port="0"/>
		<edge from-layer="921" from-port="0" to-layer="922" to-port="1"/>
		<edge from-layer="922" from-port="2" to-layer="923" to-port="0"/>
		<edge from-layer="923" from-port="1" to-layer="925" to-port="1"/>
		<edge from-layer="923" from-port="1" to-layer="924" to-port="1"/>
		<edge from-layer="924" from-port="2" to-layer="957" to-port="0"/>
		<edge from-layer="925" from-port="2" to-layer="927" to-port="0"/>
		<edge from-layer="926" from-port="0" to-layer="927" to-port="1"/>
		<edge from-layer="927" from-port="2" to-layer="929" to-port="0"/>
		<edge from-layer="928" from-port="0" to-layer="929" to-port="1"/>
		<edge from-layer="929" from-port="2" to-layer="930" to-port="0"/>
		<edge from-layer="930" from-port="1" to-layer="932" to-port="0"/>
		<edge from-layer="930" from-port="1" to-layer="958" to-port="0"/>
		<edge from-layer="930" from-port="1" to-layer="942" to-port="0"/>
		<edge from-layer="931" from-port="0" to-layer="932" to-port="1"/>
		<edge from-layer="932" from-port="2" to-layer="934" to-port="0"/>
		<edge from-layer="933" from-port="0" to-layer="934" to-port="1"/>
		<edge from-layer="934" from-port="2" to-layer="939" to-port="0"/>
		<edge from-layer="934" from-port="2" to-layer="938" to-port="1"/>
		<edge from-layer="935" from-port="0" to-layer="939" to-port="1"/>
		<edge from-layer="936" from-port="0" to-layer="939" to-port="2"/>
		<edge from-layer="937" from-port="0" to-layer="938" to-port="0"/>
		<edge from-layer="938" from-port="2" to-layer="939" to-port="3"/>
		<edge from-layer="939" from-port="4" to-layer="940" to-port="0"/>
		<edge from-layer="940" from-port="1" to-layer="951" to-port="0"/>
		<edge from-layer="941" from-port="0" to-layer="942" to-port="1"/>
		<edge from-layer="942" from-port="2" to-layer="944" to-port="0"/>
		<edge from-layer="943" from-port="0" to-layer="944" to-port="1"/>
		<edge from-layer="944" from-port="2" to-layer="949" to-port="0"/>
		<edge from-layer="944" from-port="2" to-layer="948" to-port="1"/>
		<edge from-layer="945" from-port="0" to-layer="949" to-port="1"/>
		<edge from-layer="946" from-port="0" to-layer="949" to-port="2"/>
		<edge from-layer="947" from-port="0" to-layer="948" to-port="0"/>
		<edge from-layer="948" from-port="2" to-layer="949" to-port="3"/>
		<edge from-layer="949" from-port="4" to-layer="950" to-port="0"/>
		<edge from-layer="950" from-port="1" to-layer="951" to-port="1"/>
		<edge from-layer="951" from-port="2" to-layer="953" to-port="0"/>
		<edge from-layer="952" from-port="0" to-layer="953" to-port="1"/>
		<edge from-layer="953" from-port="2" to-layer="955" to-port="0"/>
		<edge from-layer="954" from-port="0" to-layer="955" to-port="1"/>
		<edge from-layer="955" from-port="2" to-layer="956" to-port="0"/>
		<edge from-layer="956" from-port="1" to-layer="957" to-port="1"/>
		<edge from-layer="956" from-port="1" to-layer="958" to-port="1"/>
		<edge from-layer="957" from-port="2" to-layer="990" to-port="0"/>
		<edge from-layer="958" from-port="2" to-layer="960" to-port="0"/>
		<edge from-layer="959" from-port="0" to-layer="960" to-port="1"/>
		<edge from-layer="960" from-port="2" to-layer="962" to-port="0"/>
		<edge from-layer="961" from-port="0" to-layer="962" to-port="1"/>
		<edge from-layer="962" from-port="2" to-layer="963" to-port="0"/>
		<edge from-layer="963" from-port="1" to-layer="975" to-port="0"/>
		<edge from-layer="963" from-port="1" to-layer="991" to-port="0"/>
		<edge from-layer="963" from-port="1" to-layer="965" to-port="0"/>
		<edge from-layer="964" from-port="0" to-layer="965" to-port="1"/>
		<edge from-layer="965" from-port="2" to-layer="967" to-port="0"/>
		<edge from-layer="966" from-port="0" to-layer="967" to-port="1"/>
		<edge from-layer="967" from-port="2" to-layer="971" to-port="1"/>
		<edge from-layer="967" from-port="2" to-layer="972" to-port="0"/>
		<edge from-layer="968" from-port="0" to-layer="972" to-port="1"/>
		<edge from-layer="969" from-port="0" to-layer="972" to-port="2"/>
		<edge from-layer="970" from-port="0" to-layer="971" to-port="0"/>
		<edge from-layer="971" from-port="2" to-layer="972" to-port="3"/>
		<edge from-layer="972" from-port="4" to-layer="973" to-port="0"/>
		<edge from-layer="973" from-port="1" to-layer="984" to-port="0"/>
		<edge from-layer="974" from-port="0" to-layer="975" to-port="1"/>
		<edge from-layer="975" from-port="2" to-layer="977" to-port="0"/>
		<edge from-layer="976" from-port="0" to-layer="977" to-port="1"/>
		<edge from-layer="977" from-port="2" to-layer="981" to-port="1"/>
		<edge from-layer="977" from-port="2" to-layer="982" to-port="0"/>
		<edge from-layer="978" from-port="0" to-layer="982" to-port="1"/>
		<edge from-layer="979" from-port="0" to-layer="982" to-port="2"/>
		<edge from-layer="980" from-port="0" to-layer="981" to-port="0"/>
		<edge from-layer="981" from-port="2" to-layer="982" to-port="3"/>
		<edge from-layer="982" from-port="4" to-layer="983" to-port="0"/>
		<edge from-layer="983" from-port="1" to-layer="984" to-port="1"/>
		<edge from-layer="984" from-port="2" to-layer="986" to-port="0"/>
		<edge from-layer="985" from-port="0" to-layer="986" to-port="1"/>
		<edge from-layer="986" from-port="2" to-layer="988" to-port="0"/>
		<edge from-layer="987" from-port="0" to-layer="988" to-port="1"/>
		<edge from-layer="988" from-port="2" to-layer="989" to-port="0"/>
		<edge from-layer="989" from-port="1" to-layer="991" to-port="1"/>
		<edge from-layer="989" from-port="1" to-layer="990" to-port="1"/>
		<edge from-layer="990" from-port="2" to-layer="1023" to-port="0"/>
		<edge from-layer="991" from-port="2" to-layer="993" to-port="0"/>
		<edge from-layer="992" from-port="0" to-layer="993" to-port="1"/>
		<edge from-layer="993" from-port="2" to-layer="995" to-port="0"/>
		<edge from-layer="994" from-port="0" to-layer="995" to-port="1"/>
		<edge from-layer="995" from-port="2" to-layer="996" to-port="0"/>
		<edge from-layer="996" from-port="1" to-layer="1008" to-port="0"/>
		<edge from-layer="996" from-port="1" to-layer="1024" to-port="0"/>
		<edge from-layer="996" from-port="1" to-layer="998" to-port="0"/>
		<edge from-layer="997" from-port="0" to-layer="998" to-port="1"/>
		<edge from-layer="998" from-port="2" to-layer="1000" to-port="0"/>
		<edge from-layer="999" from-port="0" to-layer="1000" to-port="1"/>
		<edge from-layer="1000" from-port="2" to-layer="1004" to-port="1"/>
		<edge from-layer="1000" from-port="2" to-layer="1005" to-port="0"/>
		<edge from-layer="1001" from-port="0" to-layer="1005" to-port="1"/>
		<edge from-layer="1002" from-port="0" to-layer="1005" to-port="2"/>
		<edge from-layer="1003" from-port="0" to-layer="1004" to-port="0"/>
		<edge from-layer="1004" from-port="2" to-layer="1005" to-port="3"/>
		<edge from-layer="1005" from-port="4" to-layer="1006" to-port="0"/>
		<edge from-layer="1006" from-port="1" to-layer="1017" to-port="0"/>
		<edge from-layer="1007" from-port="0" to-layer="1008" to-port="1"/>
		<edge from-layer="1008" from-port="2" to-layer="1010" to-port="0"/>
		<edge from-layer="1009" from-port="0" to-layer="1010" to-port="1"/>
		<edge from-layer="1010" from-port="2" to-layer="1015" to-port="0"/>
		<edge from-layer="1010" from-port="2" to-layer="1014" to-port="1"/>
		<edge from-layer="1011" from-port="0" to-layer="1015" to-port="1"/>
		<edge from-layer="1012" from-port="0" to-layer="1015" to-port="2"/>
		<edge from-layer="1013" from-port="0" to-layer="1014" to-port="0"/>
		<edge from-layer="1014" from-port="2" to-layer="1015" to-port="3"/>
		<edge from-layer="1015" from-port="4" to-layer="1016" to-port="0"/>
		<edge from-layer="1016" from-port="1" to-layer="1017" to-port="1"/>
		<edge from-layer="1017" from-port="2" to-layer="1019" to-port="0"/>
		<edge from-layer="1018" from-port="0" to-layer="1019" to-port="1"/>
		<edge from-layer="1019" from-port="2" to-layer="1021" to-port="0"/>
		<edge from-layer="1020" from-port="0" to-layer="1021" to-port="1"/>
		<edge from-layer="1021" from-port="2" to-layer="1022" to-port="0"/>
		<edge from-layer="1022" from-port="1" to-layer="1024" to-port="1"/>
		<edge from-layer="1022" from-port="1" to-layer="1023" to-port="1"/>
		<edge from-layer="1023" from-port="2" to-layer="1056" to-port="0"/>
		<edge from-layer="1024" from-port="2" to-layer="1026" to-port="0"/>
		<edge from-layer="1025" from-port="0" to-layer="1026" to-port="1"/>
		<edge from-layer="1026" from-port="2" to-layer="1028" to-port="0"/>
		<edge from-layer="1027" from-port="0" to-layer="1028" to-port="1"/>
		<edge from-layer="1028" from-port="2" to-layer="1029" to-port="0"/>
		<edge from-layer="1029" from-port="1" to-layer="1031" to-port="0"/>
		<edge from-layer="1029" from-port="1" to-layer="1057" to-port="0"/>
		<edge from-layer="1029" from-port="1" to-layer="1041" to-port="0"/>
		<edge from-layer="1030" from-port="0" to-layer="1031" to-port="1"/>
		<edge from-layer="1031" from-port="2" to-layer="1033" to-port="0"/>
		<edge from-layer="1032" from-port="0" to-layer="1033" to-port="1"/>
		<edge from-layer="1033" from-port="2" to-layer="1038" to-port="0"/>
		<edge from-layer="1033" from-port="2" to-layer="1037" to-port="1"/>
		<edge from-layer="1034" from-port="0" to-layer="1038" to-port="1"/>
		<edge from-layer="1035" from-port="0" to-layer="1038" to-port="2"/>
		<edge from-layer="1036" from-port="0" to-layer="1037" to-port="0"/>
		<edge from-layer="1037" from-port="2" to-layer="1038" to-port="3"/>
		<edge from-layer="1038" from-port="4" to-layer="1039" to-port="0"/>
		<edge from-layer="1039" from-port="1" to-layer="1050" to-port="0"/>
		<edge from-layer="1040" from-port="0" to-layer="1041" to-port="1"/>
		<edge from-layer="1041" from-port="2" to-layer="1043" to-port="0"/>
		<edge from-layer="1042" from-port="0" to-layer="1043" to-port="1"/>
		<edge from-layer="1043" from-port="2" to-layer="1047" to-port="1"/>
		<edge from-layer="1043" from-port="2" to-layer="1048" to-port="0"/>
		<edge from-layer="1044" from-port="0" to-layer="1048" to-port="1"/>
		<edge from-layer="1045" from-port="0" to-layer="1048" to-port="2"/>
		<edge from-layer="1046" from-port="0" to-layer="1047" to-port="0"/>
		<edge from-layer="1047" from-port="2" to-layer="1048" to-port="3"/>
		<edge from-layer="1048" from-port="4" to-layer="1049" to-port="0"/>
		<edge from-layer="1049" from-port="1" to-layer="1050" to-port="1"/>
		<edge from-layer="1050" from-port="2" to-layer="1052" to-port="0"/>
		<edge from-layer="1051" from-port="0" to-layer="1052" to-port="1"/>
		<edge from-layer="1052" from-port="2" to-layer="1054" to-port="0"/>
		<edge from-layer="1053" from-port="0" to-layer="1054" to-port="1"/>
		<edge from-layer="1054" from-port="2" to-layer="1055" to-port="0"/>
		<edge from-layer="1055" from-port="1" to-layer="1057" to-port="1"/>
		<edge from-layer="1055" from-port="1" to-layer="1056" to-port="1"/>
		<edge from-layer="1056" from-port="2" to-layer="1089" to-port="0"/>
		<edge from-layer="1057" from-port="2" to-layer="1059" to-port="0"/>
		<edge from-layer="1058" from-port="0" to-layer="1059" to-port="1"/>
		<edge from-layer="1059" from-port="2" to-layer="1061" to-port="0"/>
		<edge from-layer="1060" from-port="0" to-layer="1061" to-port="1"/>
		<edge from-layer="1061" from-port="2" to-layer="1062" to-port="0"/>
		<edge from-layer="1062" from-port="1" to-layer="1090" to-port="0"/>
		<edge from-layer="1062" from-port="1" to-layer="1074" to-port="0"/>
		<edge from-layer="1062" from-port="1" to-layer="1064" to-port="0"/>
		<edge from-layer="1063" from-port="0" to-layer="1064" to-port="1"/>
		<edge from-layer="1064" from-port="2" to-layer="1066" to-port="0"/>
		<edge from-layer="1065" from-port="0" to-layer="1066" to-port="1"/>
		<edge from-layer="1066" from-port="2" to-layer="1070" to-port="1"/>
		<edge from-layer="1066" from-port="2" to-layer="1071" to-port="0"/>
		<edge from-layer="1067" from-port="0" to-layer="1071" to-port="1"/>
		<edge from-layer="1068" from-port="0" to-layer="1071" to-port="2"/>
		<edge from-layer="1069" from-port="0" to-layer="1070" to-port="0"/>
		<edge from-layer="1070" from-port="2" to-layer="1071" to-port="3"/>
		<edge from-layer="1071" from-port="4" to-layer="1072" to-port="0"/>
		<edge from-layer="1072" from-port="1" to-layer="1083" to-port="0"/>
		<edge from-layer="1073" from-port="0" to-layer="1074" to-port="1"/>
		<edge from-layer="1074" from-port="2" to-layer="1076" to-port="0"/>
		<edge from-layer="1075" from-port="0" to-layer="1076" to-port="1"/>
		<edge from-layer="1076" from-port="2" to-layer="1081" to-port="0"/>
		<edge from-layer="1076" from-port="2" to-layer="1080" to-port="1"/>
		<edge from-layer="1077" from-port="0" to-layer="1081" to-port="1"/>
		<edge from-layer="1078" from-port="0" to-layer="1081" to-port="2"/>
		<edge from-layer="1079" from-port="0" to-layer="1080" to-port="0"/>
		<edge from-layer="1080" from-port="2" to-layer="1081" to-port="3"/>
		<edge from-layer="1081" from-port="4" to-layer="1082" to-port="0"/>
		<edge from-layer="1082" from-port="1" to-layer="1083" to-port="1"/>
		<edge from-layer="1083" from-port="2" to-layer="1085" to-port="0"/>
		<edge from-layer="1084" from-port="0" to-layer="1085" to-port="1"/>
		<edge from-layer="1085" from-port="2" to-layer="1087" to-port="0"/>
		<edge from-layer="1086" from-port="0" to-layer="1087" to-port="1"/>
		<edge from-layer="1087" from-port="2" to-layer="1088" to-port="0"/>
		<edge from-layer="1088" from-port="1" to-layer="1090" to-port="1"/>
		<edge from-layer="1088" from-port="1" to-layer="1089" to-port="1"/>
		<edge from-layer="1089" from-port="2" to-layer="1122" to-port="0"/>
		<edge from-layer="1090" from-port="2" to-layer="1092" to-port="0"/>
		<edge from-layer="1091" from-port="0" to-layer="1092" to-port="1"/>
		<edge from-layer="1092" from-port="2" to-layer="1094" to-port="0"/>
		<edge from-layer="1093" from-port="0" to-layer="1094" to-port="1"/>
		<edge from-layer="1094" from-port="2" to-layer="1095" to-port="0"/>
		<edge from-layer="1095" from-port="1" to-layer="1097" to-port="0"/>
		<edge from-layer="1095" from-port="1" to-layer="1123" to-port="0"/>
		<edge from-layer="1095" from-port="1" to-layer="1107" to-port="0"/>
		<edge from-layer="1096" from-port="0" to-layer="1097" to-port="1"/>
		<edge from-layer="1097" from-port="2" to-layer="1099" to-port="0"/>
		<edge from-layer="1098" from-port="0" to-layer="1099" to-port="1"/>
		<edge from-layer="1099" from-port="2" to-layer="1104" to-port="0"/>
		<edge from-layer="1099" from-port="2" to-layer="1103" to-port="1"/>
		<edge from-layer="1100" from-port="0" to-layer="1104" to-port="1"/>
		<edge from-layer="1101" from-port="0" to-layer="1104" to-port="2"/>
		<edge from-layer="1102" from-port="0" to-layer="1103" to-port="0"/>
		<edge from-layer="1103" from-port="2" to-layer="1104" to-port="3"/>
		<edge from-layer="1104" from-port="4" to-layer="1105" to-port="0"/>
		<edge from-layer="1105" from-port="1" to-layer="1116" to-port="0"/>
		<edge from-layer="1106" from-port="0" to-layer="1107" to-port="1"/>
		<edge from-layer="1107" from-port="2" to-layer="1109" to-port="0"/>
		<edge from-layer="1108" from-port="0" to-layer="1109" to-port="1"/>
		<edge from-layer="1109" from-port="2" to-layer="1114" to-port="0"/>
		<edge from-layer="1109" from-port="2" to-layer="1113" to-port="1"/>
		<edge from-layer="1110" from-port="0" to-layer="1114" to-port="1"/>
		<edge from-layer="1111" from-port="0" to-layer="1114" to-port="2"/>
		<edge from-layer="1112" from-port="0" to-layer="1113" to-port="0"/>
		<edge from-layer="1113" from-port="2" to-layer="1114" to-port="3"/>
		<edge from-layer="1114" from-port="4" to-layer="1115" to-port="0"/>
		<edge from-layer="1115" from-port="1" to-layer="1116" to-port="1"/>
		<edge from-layer="1116" from-port="2" to-layer="1118" to-port="0"/>
		<edge from-layer="1117" from-port="0" to-layer="1118" to-port="1"/>
		<edge from-layer="1118" from-port="2" to-layer="1120" to-port="0"/>
		<edge from-layer="1119" from-port="0" to-layer="1120" to-port="1"/>
		<edge from-layer="1120" from-port="2" to-layer="1121" to-port="0"/>
		<edge from-layer="1121" from-port="1" to-layer="1122" to-port="1"/>
		<edge from-layer="1121" from-port="1" to-layer="1123" to-port="1"/>
		<edge from-layer="1122" from-port="2" to-layer="1155" to-port="0"/>
		<edge from-layer="1123" from-port="2" to-layer="1125" to-port="0"/>
		<edge from-layer="1124" from-port="0" to-layer="1125" to-port="1"/>
		<edge from-layer="1125" from-port="2" to-layer="1127" to-port="0"/>
		<edge from-layer="1126" from-port="0" to-layer="1127" to-port="1"/>
		<edge from-layer="1127" from-port="2" to-layer="1128" to-port="0"/>
		<edge from-layer="1128" from-port="1" to-layer="1156" to-port="0"/>
		<edge from-layer="1128" from-port="1" to-layer="1140" to-port="0"/>
		<edge from-layer="1128" from-port="1" to-layer="1130" to-port="0"/>
		<edge from-layer="1129" from-port="0" to-layer="1130" to-port="1"/>
		<edge from-layer="1130" from-port="2" to-layer="1132" to-port="0"/>
		<edge from-layer="1131" from-port="0" to-layer="1132" to-port="1"/>
		<edge from-layer="1132" from-port="2" to-layer="1136" to-port="1"/>
		<edge from-layer="1132" from-port="2" to-layer="1137" to-port="0"/>
		<edge from-layer="1133" from-port="0" to-layer="1137" to-port="1"/>
		<edge from-layer="1134" from-port="0" to-layer="1137" to-port="2"/>
		<edge from-layer="1135" from-port="0" to-layer="1136" to-port="0"/>
		<edge from-layer="1136" from-port="2" to-layer="1137" to-port="3"/>
		<edge from-layer="1137" from-port="4" to-layer="1138" to-port="0"/>
		<edge from-layer="1138" from-port="1" to-layer="1149" to-port="0"/>
		<edge from-layer="1139" from-port="0" to-layer="1140" to-port="1"/>
		<edge from-layer="1140" from-port="2" to-layer="1142" to-port="0"/>
		<edge from-layer="1141" from-port="0" to-layer="1142" to-port="1"/>
		<edge from-layer="1142" from-port="2" to-layer="1146" to-port="1"/>
		<edge from-layer="1142" from-port="2" to-layer="1147" to-port="0"/>
		<edge from-layer="1143" from-port="0" to-layer="1147" to-port="1"/>
		<edge from-layer="1144" from-port="0" to-layer="1147" to-port="2"/>
		<edge from-layer="1145" from-port="0" to-layer="1146" to-port="0"/>
		<edge from-layer="1146" from-port="2" to-layer="1147" to-port="3"/>
		<edge from-layer="1147" from-port="4" to-layer="1148" to-port="0"/>
		<edge from-layer="1148" from-port="1" to-layer="1149" to-port="1"/>
		<edge from-layer="1149" from-port="2" to-layer="1151" to-port="0"/>
		<edge from-layer="1150" from-port="0" to-layer="1151" to-port="1"/>
		<edge from-layer="1151" from-port="2" to-layer="1153" to-port="0"/>
		<edge from-layer="1152" from-port="0" to-layer="1153" to-port="1"/>
		<edge from-layer="1153" from-port="2" to-layer="1154" to-port="0"/>
		<edge from-layer="1154" from-port="1" to-layer="1155" to-port="1"/>
		<edge from-layer="1154" from-port="1" to-layer="1156" to-port="1"/>
		<edge from-layer="1155" from-port="2" to-layer="1188" to-port="0"/>
		<edge from-layer="1156" from-port="2" to-layer="1158" to-port="0"/>
		<edge from-layer="1157" from-port="0" to-layer="1158" to-port="1"/>
		<edge from-layer="1158" from-port="2" to-layer="1160" to-port="0"/>
		<edge from-layer="1159" from-port="0" to-layer="1160" to-port="1"/>
		<edge from-layer="1160" from-port="2" to-layer="1161" to-port="0"/>
		<edge from-layer="1161" from-port="1" to-layer="1163" to-port="0"/>
		<edge from-layer="1161" from-port="1" to-layer="1189" to-port="0"/>
		<edge from-layer="1161" from-port="1" to-layer="1173" to-port="0"/>
		<edge from-layer="1162" from-port="0" to-layer="1163" to-port="1"/>
		<edge from-layer="1163" from-port="2" to-layer="1165" to-port="0"/>
		<edge from-layer="1164" from-port="0" to-layer="1165" to-port="1"/>
		<edge from-layer="1165" from-port="2" to-layer="1170" to-port="0"/>
		<edge from-layer="1165" from-port="2" to-layer="1169" to-port="1"/>
		<edge from-layer="1166" from-port="0" to-layer="1170" to-port="1"/>
		<edge from-layer="1167" from-port="0" to-layer="1170" to-port="2"/>
		<edge from-layer="1168" from-port="0" to-layer="1169" to-port="0"/>
		<edge from-layer="1169" from-port="2" to-layer="1170" to-port="3"/>
		<edge from-layer="1170" from-port="4" to-layer="1171" to-port="0"/>
		<edge from-layer="1171" from-port="1" to-layer="1182" to-port="0"/>
		<edge from-layer="1172" from-port="0" to-layer="1173" to-port="1"/>
		<edge from-layer="1173" from-port="2" to-layer="1175" to-port="0"/>
		<edge from-layer="1174" from-port="0" to-layer="1175" to-port="1"/>
		<edge from-layer="1175" from-port="2" to-layer="1179" to-port="1"/>
		<edge from-layer="1175" from-port="2" to-layer="1180" to-port="0"/>
		<edge from-layer="1176" from-port="0" to-layer="1180" to-port="1"/>
		<edge from-layer="1177" from-port="0" to-layer="1180" to-port="2"/>
		<edge from-layer="1178" from-port="0" to-layer="1179" to-port="0"/>
		<edge from-layer="1179" from-port="2" to-layer="1180" to-port="3"/>
		<edge from-layer="1180" from-port="4" to-layer="1181" to-port="0"/>
		<edge from-layer="1181" from-port="1" to-layer="1182" to-port="1"/>
		<edge from-layer="1182" from-port="2" to-layer="1184" to-port="0"/>
		<edge from-layer="1183" from-port="0" to-layer="1184" to-port="1"/>
		<edge from-layer="1184" from-port="2" to-layer="1186" to-port="0"/>
		<edge from-layer="1185" from-port="0" to-layer="1186" to-port="1"/>
		<edge from-layer="1186" from-port="2" to-layer="1187" to-port="0"/>
		<edge from-layer="1187" from-port="1" to-layer="1188" to-port="1"/>
		<edge from-layer="1187" from-port="1" to-layer="1189" to-port="1"/>
		<edge from-layer="1188" from-port="2" to-layer="1221" to-port="0"/>
		<edge from-layer="1189" from-port="2" to-layer="1191" to-port="0"/>
		<edge from-layer="1190" from-port="0" to-layer="1191" to-port="1"/>
		<edge from-layer="1191" from-port="2" to-layer="1193" to-port="0"/>
		<edge from-layer="1192" from-port="0" to-layer="1193" to-port="1"/>
		<edge from-layer="1193" from-port="2" to-layer="1194" to-port="0"/>
		<edge from-layer="1194" from-port="1" to-layer="1196" to-port="0"/>
		<edge from-layer="1194" from-port="1" to-layer="1222" to-port="0"/>
		<edge from-layer="1194" from-port="1" to-layer="1206" to-port="0"/>
		<edge from-layer="1195" from-port="0" to-layer="1196" to-port="1"/>
		<edge from-layer="1196" from-port="2" to-layer="1198" to-port="0"/>
		<edge from-layer="1197" from-port="0" to-layer="1198" to-port="1"/>
		<edge from-layer="1198" from-port="2" to-layer="1202" to-port="1"/>
		<edge from-layer="1198" from-port="2" to-layer="1203" to-port="0"/>
		<edge from-layer="1199" from-port="0" to-layer="1203" to-port="1"/>
		<edge from-layer="1200" from-port="0" to-layer="1203" to-port="2"/>
		<edge from-layer="1201" from-port="0" to-layer="1202" to-port="0"/>
		<edge from-layer="1202" from-port="2" to-layer="1203" to-port="3"/>
		<edge from-layer="1203" from-port="4" to-layer="1204" to-port="0"/>
		<edge from-layer="1204" from-port="1" to-layer="1215" to-port="0"/>
		<edge from-layer="1205" from-port="0" to-layer="1206" to-port="1"/>
		<edge from-layer="1206" from-port="2" to-layer="1208" to-port="0"/>
		<edge from-layer="1207" from-port="0" to-layer="1208" to-port="1"/>
		<edge from-layer="1208" from-port="2" to-layer="1212" to-port="1"/>
		<edge from-layer="1208" from-port="2" to-layer="1213" to-port="0"/>
		<edge from-layer="1209" from-port="0" to-layer="1213" to-port="1"/>
		<edge from-layer="1210" from-port="0" to-layer="1213" to-port="2"/>
		<edge from-layer="1211" from-port="0" to-layer="1212" to-port="0"/>
		<edge from-layer="1212" from-port="2" to-layer="1213" to-port="3"/>
		<edge from-layer="1213" from-port="4" to-layer="1214" to-port="0"/>
		<edge from-layer="1214" from-port="1" to-layer="1215" to-port="1"/>
		<edge from-layer="1215" from-port="2" to-layer="1217" to-port="0"/>
		<edge from-layer="1216" from-port="0" to-layer="1217" to-port="1"/>
		<edge from-layer="1217" from-port="2" to-layer="1219" to-port="0"/>
		<edge from-layer="1218" from-port="0" to-layer="1219" to-port="1"/>
		<edge from-layer="1219" from-port="2" to-layer="1220" to-port="0"/>
		<edge from-layer="1220" from-port="1" to-layer="1221" to-port="1"/>
		<edge from-layer="1220" from-port="1" to-layer="1222" to-port="1"/>
		<edge from-layer="1221" from-port="2" to-layer="1254" to-port="0"/>
		<edge from-layer="1222" from-port="2" to-layer="1224" to-port="0"/>
		<edge from-layer="1223" from-port="0" to-layer="1224" to-port="1"/>
		<edge from-layer="1224" from-port="2" to-layer="1226" to-port="0"/>
		<edge from-layer="1225" from-port="0" to-layer="1226" to-port="1"/>
		<edge from-layer="1226" from-port="2" to-layer="1227" to-port="0"/>
		<edge from-layer="1227" from-port="1" to-layer="1229" to-port="0"/>
		<edge from-layer="1227" from-port="1" to-layer="1255" to-port="0"/>
		<edge from-layer="1227" from-port="1" to-layer="1239" to-port="0"/>
		<edge from-layer="1228" from-port="0" to-layer="1229" to-port="1"/>
		<edge from-layer="1229" from-port="2" to-layer="1231" to-port="0"/>
		<edge from-layer="1230" from-port="0" to-layer="1231" to-port="1"/>
		<edge from-layer="1231" from-port="2" to-layer="1235" to-port="1"/>
		<edge from-layer="1231" from-port="2" to-layer="1236" to-port="0"/>
		<edge from-layer="1232" from-port="0" to-layer="1236" to-port="1"/>
		<edge from-layer="1233" from-port="0" to-layer="1236" to-port="2"/>
		<edge from-layer="1234" from-port="0" to-layer="1235" to-port="0"/>
		<edge from-layer="1235" from-port="2" to-layer="1236" to-port="3"/>
		<edge from-layer="1236" from-port="4" to-layer="1237" to-port="0"/>
		<edge from-layer="1237" from-port="1" to-layer="1248" to-port="0"/>
		<edge from-layer="1238" from-port="0" to-layer="1239" to-port="1"/>
		<edge from-layer="1239" from-port="2" to-layer="1241" to-port="0"/>
		<edge from-layer="1240" from-port="0" to-layer="1241" to-port="1"/>
		<edge from-layer="1241" from-port="2" to-layer="1246" to-port="0"/>
		<edge from-layer="1241" from-port="2" to-layer="1245" to-port="1"/>
		<edge from-layer="1242" from-port="0" to-layer="1246" to-port="1"/>
		<edge from-layer="1243" from-port="0" to-layer="1246" to-port="2"/>
		<edge from-layer="1244" from-port="0" to-layer="1245" to-port="0"/>
		<edge from-layer="1245" from-port="2" to-layer="1246" to-port="3"/>
		<edge from-layer="1246" from-port="4" to-layer="1247" to-port="0"/>
		<edge from-layer="1247" from-port="1" to-layer="1248" to-port="1"/>
		<edge from-layer="1248" from-port="2" to-layer="1250" to-port="0"/>
		<edge from-layer="1249" from-port="0" to-layer="1250" to-port="1"/>
		<edge from-layer="1250" from-port="2" to-layer="1252" to-port="0"/>
		<edge from-layer="1251" from-port="0" to-layer="1252" to-port="1"/>
		<edge from-layer="1252" from-port="2" to-layer="1253" to-port="0"/>
		<edge from-layer="1253" from-port="1" to-layer="1254" to-port="1"/>
		<edge from-layer="1253" from-port="1" to-layer="1255" to-port="1"/>
		<edge from-layer="1254" from-port="2" to-layer="1287" to-port="0"/>
		<edge from-layer="1255" from-port="2" to-layer="1257" to-port="0"/>
		<edge from-layer="1256" from-port="0" to-layer="1257" to-port="1"/>
		<edge from-layer="1257" from-port="2" to-layer="1259" to-port="0"/>
		<edge from-layer="1258" from-port="0" to-layer="1259" to-port="1"/>
		<edge from-layer="1259" from-port="2" to-layer="1260" to-port="0"/>
		<edge from-layer="1260" from-port="1" to-layer="1262" to-port="0"/>
		<edge from-layer="1260" from-port="1" to-layer="1272" to-port="0"/>
		<edge from-layer="1261" from-port="0" to-layer="1262" to-port="1"/>
		<edge from-layer="1262" from-port="2" to-layer="1264" to-port="0"/>
		<edge from-layer="1263" from-port="0" to-layer="1264" to-port="1"/>
		<edge from-layer="1264" from-port="2" to-layer="1268" to-port="1"/>
		<edge from-layer="1264" from-port="2" to-layer="1269" to-port="0"/>
		<edge from-layer="1265" from-port="0" to-layer="1269" to-port="1"/>
		<edge from-layer="1266" from-port="0" to-layer="1269" to-port="2"/>
		<edge from-layer="1267" from-port="0" to-layer="1268" to-port="0"/>
		<edge from-layer="1268" from-port="2" to-layer="1269" to-port="3"/>
		<edge from-layer="1269" from-port="4" to-layer="1270" to-port="0"/>
		<edge from-layer="1270" from-port="1" to-layer="1281" to-port="0"/>
		<edge from-layer="1271" from-port="0" to-layer="1272" to-port="1"/>
		<edge from-layer="1272" from-port="2" to-layer="1274" to-port="0"/>
		<edge from-layer="1273" from-port="0" to-layer="1274" to-port="1"/>
		<edge from-layer="1274" from-port="2" to-layer="1278" to-port="1"/>
		<edge from-layer="1274" from-port="2" to-layer="1279" to-port="0"/>
		<edge from-layer="1275" from-port="0" to-layer="1279" to-port="1"/>
		<edge from-layer="1276" from-port="0" to-layer="1279" to-port="2"/>
		<edge from-layer="1277" from-port="0" to-layer="1278" to-port="0"/>
		<edge from-layer="1278" from-port="2" to-layer="1279" to-port="3"/>
		<edge from-layer="1279" from-port="4" to-layer="1280" to-port="0"/>
		<edge from-layer="1280" from-port="1" to-layer="1281" to-port="1"/>
		<edge from-layer="1281" from-port="2" to-layer="1283" to-port="0"/>
		<edge from-layer="1282" from-port="0" to-layer="1283" to-port="1"/>
		<edge from-layer="1283" from-port="2" to-layer="1285" to-port="0"/>
		<edge from-layer="1284" from-port="0" to-layer="1285" to-port="1"/>
		<edge from-layer="1285" from-port="2" to-layer="1286" to-port="0"/>
		<edge from-layer="1286" from-port="1" to-layer="1287" to-port="1"/>
		<edge from-layer="1287" from-port="2" to-layer="1288" to-port="0"/>
		<edge from-layer="1288" from-port="1" to-layer="1290" to-port="0"/>
		<edge from-layer="1289" from-port="0" to-layer="1290" to-port="1"/>
		<edge from-layer="1290" from-port="2" to-layer="1292" to-port="0"/>
		<edge from-layer="1291" from-port="0" to-layer="1292" to-port="1"/>
		<edge from-layer="1292" from-port="2" to-layer="1293" to-port="0"/>
		<edge from-layer="1293" from-port="1" to-layer="1295" to-port="0"/>
		<edge from-layer="1294" from-port="0" to-layer="1295" to-port="1"/>
		<edge from-layer="1295" from-port="2" to-layer="1297" to-port="0"/>
		<edge from-layer="1296" from-port="0" to-layer="1297" to-port="1"/>
		<edge from-layer="1297" from-port="2" to-layer="1301" to-port="0"/>
		<edge from-layer="1298" from-port="0" to-layer="1301" to-port="1"/>
		<edge from-layer="1299" from-port="0" to-layer="1301" to-port="2"/>
		<edge from-layer="1300" from-port="0" to-layer="1301" to-port="3"/>
		<edge from-layer="1301" from-port="4" to-layer="1303" to-port="0"/>
		<edge from-layer="1302" from-port="0" to-layer="1303" to-port="1"/>
		<edge from-layer="1303" from-port="2" to-layer="1305" to-port="0"/>
		<edge from-layer="1303" from-port="2" to-layer="1314" to-port="0"/>
		<edge from-layer="1304" from-port="0" to-layer="1305" to-port="1"/>
		<edge from-layer="1305" from-port="2" to-layer="1307" to-port="0"/>
		<edge from-layer="1306" from-port="0" to-layer="1307" to-port="1"/>
		<edge from-layer="1307" from-port="2" to-layer="1309" to-port="0"/>
		<edge from-layer="1308" from-port="0" to-layer="1309" to-port="1"/>
		<edge from-layer="1309" from-port="2" to-layer="1311" to-port="0"/>
		<edge from-layer="1310" from-port="0" to-layer="1311" to-port="1"/>
		<edge from-layer="1311" from-port="2" to-layer="1312" to-port="0"/>
		<edge from-layer="1313" from-port="0" to-layer="1314" to-port="1"/>
		<edge from-layer="1314" from-port="2" to-layer="1316" to-port="0"/>
		<edge from-layer="1315" from-port="0" to-layer="1316" to-port="1"/>
		<edge from-layer="1316" from-port="2" to-layer="1318" to-port="0"/>
		<edge from-layer="1317" from-port="0" to-layer="1318" to-port="1"/>
		<edge from-layer="1318" from-port="2" to-layer="1320" to-port="0"/>
		<edge from-layer="1319" from-port="0" to-layer="1320" to-port="1"/>
		<edge from-layer="1320" from-port="2" to-layer="1321" to-port="0"/>
	</edges>
	<meta_data>
		<MO_version value="2021.4.2-3976-0943ed67223-refs/pull/539/head"/>
		<cli_parameters>
			<caffe_parser_path value="DIR"/>
			<data_type value="FP16"/>
			<disable_nhwc_to_nchw value="False"/>
			<disable_omitting_optional value="False"/>
			<disable_resnet_optimization value="False"/>
			<disable_weights_compression value="False"/>
			<enable_concat_optimization value="False"/>
			<enable_flattening_nested_params value="False"/>
			<enable_ssd_gluoncv value="False"/>
			<extensions value="DIR"/>
			<framework value="onnx"/>
			<freeze_placeholder_with_value value="{}"/>
			<generate_deprecated_IR_V7 value="False"/>
			<input_model value="DIR/wavenet10130.onnx"/>
			<input_model_is_text value="False"/>
			<input_shape value="[1, 1, 10130]"/>
			<k value="DIR/CustomLayersMapping.xml"/>
			<keep_shape_ops value="True"/>
			<legacy_ir_generation value="False"/>
			<legacy_mxnet_model value="False"/>
			<log_level value="ERROR"/>
			<mean_scale_values value="{}"/>
			<mean_values value="()"/>
			<model_name value="wavenet10130"/>
			<output_dir value="DIR"/>
			<placeholder_data_types value="{}"/>
			<placeholder_shapes value="[    1     1 10130]"/>
			<progress value="False"/>
			<remove_memory value="False"/>
			<remove_output_softmax value="False"/>
			<reverse_input_channels value="False"/>
			<save_params_from_nd value="False"/>
			<scale_values value="()"/>
			<silent value="False"/>
			<static_shape value="False"/>
			<stream_output value="False"/>
			<transform value=""/>
			<unset unset_cli_parameters="batch, counts, disable_fusing, disable_gfusing, finegrain_fusing, input, input_checkpoint, input_meta_graph, input_proto, input_symbol, mean_file, mean_file_offsets, move_to_preprocess, nd_prefix_name, output, pretrained_model_name, saved_model_dir, saved_model_tags, scale, tensorboard_logdir, tensorflow_custom_layer_libraries, tensorflow_custom_operations_config_update, tensorflow_object_detection_api_pipeline_config, tensorflow_use_custom_operations_config, transformations_config"/>
		</cli_parameters>
	</meta_data>
</net>
